models/rl_agents/manager.pth (torch, 14054 bytes, 12 tensors)

fc1.weight f4 [32, 19]
000000 9a fb c8 bd 66 0c 4c be d8 11 8b 3d 1e c5 26 be
       -0.09813614 -0.19926605 0.06790513 -0.16286132
000010 fa 8c 45 bd 09 4d 27 3e c6 d8 d7 bd d3 4a 70 be
       -0.04823015 0.1633798 -0.10539393 -0.23466043
000020 8e 90 e3 3d a6 bd 20 3e e6 46 06 3e 64 af f0 3d
       0.11111556 0.15697345 0.13112983 0.11752203
000030 de f2 d9 3d c0 4a 3d 3d 43 bb 80 be 2f ab 8a 3d
       0.10642026 0.046213865 -0.2514287 0.06770932
000040 2a 65 4d 3e 30 1d 51 bd 20 3b eb 3b a7 dc 11 3d
       0.20058122 -0.051053226 0.007178679 0.03561082
000050 11 16 04 3d d0 b4 d0 3d 3a 4e 81 3d 4f 4e ef ba
       0.032247607 0.10190737 0.06313749 -0.0018257591
000060 05 a8 3d 3e c4 e9 85 3e 66 ce ce 3d ba bd 3b 3e
       0.18521126 0.26154912 0.10097961 0.18334094
000070 f6 bb 28 be e9 bd 94 bd 27 76 de bc 37 79 4f be
       -0.16477951 -0.07262785 -0.027155949 -0.20261084
000080 d5 92 90 3d dc 5b 57 3e 0d 80 f8 bc fe 5e b6 be
       0.07059256 0.21031135 -0.030334497 -0.35619348
000090 27 fd 65 be b5 02 6a 3e b7 34 f6 bd e1 13 99 bd
       -0.22459851 0.22852595 -0.12021773 -0.07474495
0000a0 8a 01 79 3e f4 94 98 3e 4a 11 ff 3d 7e 08 82 3e
       0.24316993 0.29801142 0.124544695 0.25397104
0000b0 b2 8e 73 3d 35 03 5a be 51 44 c1 3d fb df 1e 3e
       0.059462257 -0.21290286 0.094368584 0.1551513
0000c0 aa 55 e9 3d 86 17 5e 3d 43 b4 09 bd 05 53 82 3d
       0.11393292 0.054221652 -0.033619177 0.06363491
0000d0 a7 a9 22 3e de 6f 14 3e ab 7e 5c be 3d fb 35 be
       0.1588503 0.14495799 -0.21532695 -0.17771621
0000e0 5e 86 1d 3e bb a3 87 3d 6d cc 72 be d4 bf a8 3c
       0.15383288 0.06623026 -0.23710795 0.020599283
0000f0 3d ee 29 3c 76 db 04 be a8 22 f2 3d 38 f6 1a 3c
       0.010371742 -0.12974343 0.118230164 0.009458117
000100 91 c7 6a 3d 56 e2 4c bd 09 16 6b bd 2e c3 5e bd
       0.057319228 -0.05002054 -0.05739406 -0.054385357
000110 9e b1 50 3d 0c a5 0e 3d e7 f5 01 be 8c b1 99 3c
       0.05095064 0.03482537 -0.1269146 0.018761419
000120 8f 65 e2 bd 79 de 29 3e 63 29 0d be 20 5d 8a 3e
       -0.11054527 0.16588773 -0.13785319 0.27024174
000130 2d 2b 11 be 5f ac 1f 3e 4a 08 39 bc 5e 1f d3 bc
       -0.14176627 0.15593098 -0.01129348 -0.025771793
000140 90 b0 73 be 2a c8 3e 3e 9e d3 e4 3d 66 68 58 be
       -0.23797822 0.18631044 0.11173175 -0.21133575
000150 ba 2a ec bc 5d fa 83 3e c9 a4 3e bd e0 c7 68 be
       -0.028828967 0.2577695 -0.04654387 -0.22732496
000160 ae b9 17 be 8c 13 81 bc 26 f5 f1 bd 99 ed 37 bd
       -0.14816925 -0.015756391 -0.118143365 -0.044904325
000170 1a 14 27 be f0 29 ed 3d 36 88 9e 3d 44 26 3d 3b
       -0.16316262 0.115802646 0.07740824 0.002886192
000180 aa d0 7b 3e cc 89 cf bd ad 4f a7 bc ac aa a2 bd
       0.24591318 -0.101337045 -0.020423735 -0.07942709
000190 0b 6f 89 be 68 02 5e 3c b4 e5 84 be fe b2 3a 3d
       -0.26842532 0.013550378 -0.259565 0.045580857
0001a0 ac 72 89 3e 39 71 04 3e 74 c9 93 3d 92 5a 80 be
       0.268453 0.12933816 0.072161585 -0.250691
0001b0 bf 56 14 3d 41 b3 b5 3d 9a 53 09 be 6a 32 41 be
       0.03621554 0.088720806 -0.13410798 -0.18866888
0001c0 ae 44 cd bd 12 11 ff bd e9 2f 24 3e 20 40 41 bd
       -0.10022865 -0.12454428 0.16033901 -0.047180295
0001d0 e8 03 cc 3c af 4a 02 3e f6 3c c2 3d b6 23 85 3d
       0.024904206 0.12723802 0.094842836 0.06500952
0001e0 40 b9 02 be 88 82 25 be 5c a5 6a bd 7b c4 2b 3e
       -0.1276598 -0.16163075 -0.057286605 0.1677417
0001f0 17 53 67 be bc 19 13 bd d6 ee e4 3d b6 65 39 be
       -0.2259029 -0.035913214 0.11178367 -0.18105206
000200 58 15 a4 bd 28 c7 0b be 6b cb 30 3e 8e 80 b6 bd
       -0.080118835 -0.13650191 0.17265098 -0.089112386
000210 6d d7 57 3e 80 ba 3d be b2 d5 8b bd 33 0b f6 bc
       0.21078272 -0.18528175 -0.068278685 -0.030034637
000220 ba 8b 0f be df 5e 76 be 47 86 20 3e b0 a2 16 3d
       -0.14018145 -0.24059628 0.15676223 0.036776245
000230 e0 16 16 3d 19 54 f3 3d 25 f3 18 be 5c 94 ae bd
       0.03664291 0.11881275 -0.14936502 -0.08524391
000240 bd bf 27 3e a2 74 12 3e f3 c3 d9 ba 00 9f 53 bd
       0.16381736 0.14302304 -0.0016614184 -0.051665306
000250 47 1a 56 be 4e 74 c5 3d fa fb 98 bd df cd e0 3d
       -0.20908462 0.09641324 -0.07469936 0.10976767
000260 17 e8 98 be 9a 35 0c 3e 71 b0 f3 3d 8d b6 c3 bc
       -0.2986457 0.13692322 0.11898888 -0.023890758
000270 4b 6c 30 3e 66 14 9e bd 33 9d 41 3b e6 72 33 3e
       0.1722881 -0.077187344 0.002954316 0.17524299
000280 fe 9c e4 bd 8d df d1 bd 5c 92 74 3c 81 d9 4a 3c
       -0.111627564 -0.10247717 0.014927473 0.012380959
000290 dc 32 13 3e 8c a9 90 3d 61 97 57 bd ba d5 d4 bd
       0.1437487 0.070635885 -0.0526346 -0.103923276
0002a0 68 57 90 be 65 4d 3c 3d 27 d6 91 bd a5 24 70 3c
       -0.28191686 0.045972247 -0.071209244 0.014657174
0002b0 0b 52 78 bc c7 59 84 be d2 3b b2 bc 2e 84 7f be
       -0.015156279 -0.25849745 -0.02175704 -0.24952766
0002c0 09 4e ba bd 0f 1a 7b bd 8e de 3a be 89 77 1a 3e
       -0.09096915 -0.06130415 -0.1824896 0.15084662
0002d0 db 43 15 be b5 de a6 3d 9d b7 df bd 64 f0 1d 3e
       -0.14576666 0.08147947 -0.10923693 0.15423733
0002e0 ee 99 e2 3d 81 5b 2a bd ee 36 3c 3e 8a 1b 5f 3e
       0.11064516 -0.04159117 0.18380329 0.21787849
0002f0 e6 51 69 be 3e 93 9c bd 3c 9e 07 bd dc fa 19 3d
       -0.22785148 -0.07645272 -0.03310989 0.037592754
000300 69 88 18 3e e9 77 48 be 84 56 20 be 3b 46 ee bd
       0.14895786 -0.19576992 -0.15658003 -0.11634489
000310 6f 06 f4 bd 5e ba 59 be f0 ab 2a be b9 8e dc bd
       -0.119152896 -0.212625 -0.16667151 -0.1076941
000320 f0 2e 5f bc 00 a4 16 39 53 02 56 be 2e 2a c3 3d
       -0.013622031 0.0001436621 -0.20899324 0.095295295
000330 90 73 0d bc d0 ea ce bd 85 d5 49 be 44 3b 6c 3d
       -0.008633509 -0.10103381 -0.19710357 0.057673708
000340 af bc 49 3e 32 7a 3f be 2e 5c 26 be 8d 7e da 3c
       0.19700883 -0.18698958 -0.16246101 0.026671672
000350 49 3f 40 3e 52 43 3a be 1d 86 7c 3d 4b 31 90 bc
       0.18774141 -0.18189743 0.061651338 -0.01760163
000360 9c 7e 9d bd 35 7d 6c 3d c5 50 17 bd 9c f0 6b be
       -0.076901644 0.057736594 -0.036942262 -0.23041004
000370 6d 1b af 3c d3 08 f0 3d 0f 58 39 3e f9 f4 05 bd
       0.021375382 0.11720433 0.18099998 -0.032704327
000380 ae 79 07 3b 5b 78 dc bd 5d 90 1a 3e 20 4c 1c be
       0.0020671892 -0.107651435 0.15094133 -0.15263414
000390 0d 99 03 3e d0 ac 87 3e 52 9a 71 3e 05 65 9f be
       0.12851353 0.26499033 0.23594025 -0.3113176
0003a0 3c b9 29 bd 6d 87 0b 3e 50 4f c8 bd 74 ea 54 be
       -0.04143642 0.1362588 -0.09780753 -0.20792562
0003b0 8b 75 b0 3d fb 5d 84 3d b8 ef c1 3d 62 d7 0e be
       0.086161695 0.06463238 0.09469551 -0.1394935
0003c0 e3 b3 02 3d 70 2e 74 be e5 70 b3 bd 03 94 8f bd
       0.031909835 -0.2384584 -0.08761767 -0.07010653
0003d0 d4 c1 94 3e da 7a 4b 3e ac ca 3a 3d 54 f4 26 3e
       0.2905413 0.19871083 0.04560344 0.16304141
0003e0 49 23 16 3e 58 b8 41 be fc 90 ba 3d 05 ab 5d 3e
       0.14661898 -0.18917978 0.09109685 0.2164727
0003f0 02 c5 4d bc 47 ca a2 3d f5 16 39 3e 69 24 ce bd
       -0.012559177 0.079487376 0.18075164 -0.100655384

fc1.bias f4 [32]
000000 ba c0 60 be 2a 29 ea 3d 60 b0 cb bb a6 4f 69 be
       -0.2194852 0.11433633 -0.006216094 -0.2278429
000010 7e ad 03 3e 2f d7 f8 bd 85 18 ee bd fe 45 85 bd
       0.12859151 -0.12150418 -0.116257705 -0.065074906
000020 4f 4b 34 3d 8b 6d 85 bd 90 af 37 bc b6 dd 17 be
       0.044017132 -0.06515034 -0.011211291 -0.1483067
000030 06 66 24 bd 5f 81 a7 3b a9 51 15 be f5 9f 60 be
       -0.04013636 0.005111858 -0.14581932 -0.21936019
000040 b6 7b 20 be 87 43 99 be 98 24 c4 3c 25 88 bf 3d
       -0.15672192 -0.29934332 0.02394323 0.093521394
000050 34 13 40 bd 04 cb 91 bd 30 04 ff 3d 1f c6 32 3e
       -0.046893314 -0.071188 0.124519706 0.1745839
000060 d0 2f 9e 3d 6f b4 42 3d 9f aa e1 3d e5 47 69 3e
       0.07723963 0.047535356 0.110188715 0.22781332
000070 55 e9 3d be b8 35 3d 3e cb b7 1b be d5 bc 9d bd
       -0.1854604 0.18477523 -0.1520683 -0.077020325

fc2.weight f4 [3, 32]
000000 c8 ea a9 bc 1f ba 7e bd 47 b1 49 bd 7b 39 2b 3e
       -0.020741835 -0.062189218 -0.04924133 0.16721146
000010 40 da 3c be 3a 2f 29 bd ea 31 31 be a8 16 c9 3d
       -0.18442631 -0.041304804 -0.17304197 0.098187745
000020 8b be fe bd 0f be 16 bd 58 79 49 3d 08 69 7b bd
       -0.12438687 -0.036802348 0.049187988 -0.061379462
000030 ab 35 42 3e 67 35 06 3e c6 f3 80 3d f1 78 9f 3c
       0.18965785 0.13106309 0.06296496 0.019466849
000040 5c 99 03 bd 9d 90 20 3e 4d 3e 2d 3e 9c b3 25 be
       -0.032128677 0.15680166 0.16918297 -0.16181797
000050 e8 83 b5 3d 00 f1 dc ba 94 06 03 be 3a f1 d3 bd
       0.0886305 -0.0016856492 -0.12795478 -0.10348745
000060 fc 32 89 bc 90 d6 98 3d 3c c8 c6 3d 92 fe cb 3d
       -0.016747944 0.074627995 0.097061604 0.09960665
000070 16 3f 45 3d 37 bb 03 be 83 0d 91 bb 07 e3 1d 3e
       0.048155867 -0.12864386 -0.0044266596 0.15418635
000080 7b 3d 19 be 9b 92 04 be 39 6e 07 be 8f de 0c be
       -0.14964859 -0.1294655 -0.1322564 -0.13756774
000090 f0 e1 9a 3d 5d 42 0f 3e d0 7a 02 3c c2 dd 8a 3d
       0.075626254 0.1399016 0.007963851 0.06780578
0000a0 44 6f f4 bd 8e c3 8a 3d 39 52 0a be 6a 57 e3 bc
       -0.11935285 0.0677558 -0.13507928 -0.027751643
0000b0 9a 67 3a 3e e1 3f 0a be e5 82 0d 3d b3 ea 4c bd
       0.18203583 -0.1350093 0.03454866 -0.050028514
0000c0 97 01 fa bd e8 bc 82 3d 43 e7 b0 bd c1 f5 8f 3d
       -0.122073345 0.06383687 -0.0863786 0.07029296
0000d0 90 55 63 bd f4 92 4e bd d8 1a a8 bd d3 bb c2 bd
       -0.05550152 -0.050433114 -0.08208245 -0.09508481
0000e0 81 b9 78 3c a6 f2 da 3d 70 ec 5f bc 64 80 04 3d
       0.015180946 0.10690813 -0.013667211 0.032349005
0000f0 1b fb dc bd b0 e7 e5 bd 08 75 c5 bd 0e 26 89 3c
       -0.10790082 -0.112258315 -0.096414626 0.016741779
000100 85 01 0f bd 99 54 d1 3d 03 8c 3a 3e cb 36 98 3d
       -0.03491356 0.10221214 0.18217473 0.07432326
000110 c0 e5 84 3d c7 75 14 3d d0 3c fa bd 05 34 60 39
       0.06489134 0.036245134 -0.1221863 0.00021381683
000120 a7 94 a4 bd f3 81 1d be a9 49 06 3e f9 db 38 bd
       -0.08036166 -0.15381603 0.13114037 -0.045131657
000130 21 d6 86 bd d4 bf 9d be ed 43 f3 3d f0 7a 2d 3c
       -0.065838106 -0.30810416 0.1187819 0.010588393
000140 21 ab 78 3d 33 24 09 be f3 52 33 3e 8f 2c 9e bd
       0.060710076 -0.13392715 0.17512111 -0.077233426
000150 f7 72 10 3e e8 40 1a 3d 64 31 40 3e ef 87 aa bd
       0.14106356 0.037659556 0.18768841 -0.083267085
000160 9d 89 2d 3e a2 b4 b5 bd b1 a7 b8 3c 54 0b 74 3d
       0.16947027 -0.088723436 0.022540899 0.059581116
000170 81 e9 c3 bc 61 e6 98 3d 49 2a ec 3d 21 f6 0c be
       -0.023915054 0.07465816 0.11531503 -0.13765766

fc2.bias f4 [3]
000000 92 87 4d be ee f3 00 be d1 83 c9 bd
       -0.20071247 -0.12593052 -0.09839595

exp_avg f4 [32, 19]
000000 e5 54 e8 b5 4c 8e b0 33 37 38 56 34 e9 54 39 b4
       -1.7310055e-06 8.221522e-08 1.9950754e-07 -1.7260358e-07
000010 45 f5 ab b5 30 05 a1 b5 88 77 ad b5 13 79 64 b5
       -1.2811876e-06 -1.1996945e-06 -1.2924293e-06 -8.5112805e-07
000020 d4 17 8c b5 8a 41 da b5 4b c7 96 b5 54 59 18 b5
       -1.0437748e-06 -1.626134e-06 -1.1233873e-06 -5.67544e-07
000030 bc 01 70 b5 7a e9 d4 b5 25 c0 5e 35 bb b7 c5 b5
       -8.940949e-07 -1.5863181e-06 8.298105e-07 -1.4731116e-06
000040 23 2e 32 35 00 00 00 00 00 00 00 00 a4 89 cb ba
       6.6377305e-07 0.0 0.0 -0.0015528691
000050 0e 41 96 bb ae 88 4f bb 04 35 df bb b3 a1 e1 bb
       -0.004585392 -0.003166716 -0.00681174 -0.006885731
000060 c6 4b d8 bb a7 d3 f1 bb 57 2e ea ba 5f f1 0c ba
       -0.00660083 -0.0073799673 -0.0017866594 -0.0005376543
000070 2a da 84 b9 10 e8 b6 bb f6 bd 1f bb e2 79 63 bb
       -0.00025339547 -0.005581863 -0.00243747 -0.00347101
000080 55 33 f6 bb 2d 3a 86 bb cf fd eb bb b5 8d 86 37
       -0.0075134435 -0.0040962906 -0.007201887 1.6040032e-05
000090 eb ed 23 3a 06 eb 90 39 29 87 5b bb ca de cf bb
       0.0006253409 0.00027640926 -0.003349731 -0.006343697
0000a0 84 b0 b5 bb 3a 46 2f bc a8 de 3b bc 7a 29 34 bc
       -0.005544724 -0.010697896 -0.01146666 -0.010996217
0000b0 60 f4 49 bc 64 6a 77 bb fd 87 d5 ba 03 3e 93 ba
       -0.01232633 -0.0037752623 -0.0016291138 -0.0011233691
0000c0 6f f5 19 bc 01 63 83 bb 81 eb c0 bb 79 12 4f bc
       -0.009396895 -0.004009605 -0.0058874493 -0.012638682
0000d0 02 f2 db bb 5e e0 31 bc 53 29 63 37 c9 59 2f 3a
       -0.006712199 -0.010856716 1.3539876e-05 0.0006689099
0000e0 4b 82 d1 39 a4 d2 ab 32 a4 a0 b4 b1 38 47 c7 30
       0.00039960662 2.0002808e-08 -5.256952e-09 1.4499397e-09
0000f0 d4 26 0a 32 32 78 87 32 b1 79 8c 32 9f 55 9f 32
       8.041486e-09 1.5770727e-08 1.6353484e-08 1.8548972e-08
000100 1e 30 c3 32 e4 e9 02 32 5d 6b fe 31 6f 33 7e 32
       2.2722869e-08 7.6201765e-09 7.4045787e-09 1.47964405e-08
000110 fd da dc 31 67 7f 45 32 59 21 1c 32 7e fa db 31
       6.427739e-09 1.1495877e-08 9.0879775e-09 6.4022165e-09
000120 a4 a3 30 32 00 00 00 00 00 00 00 00 de 1f bd b1
       1.0281756e-08 0.0 0.0 -5.504247e-09
000130 25 0c 61 b8 5a 7f a1 ba dd 8f f8 b8 43 9b cc ba
       -5.365549e-05 -0.0012321279 -0.00011852358 -0.0015610236
000140 4e 75 d7 ba 2c a4 a6 ba 6d 71 e6 ba fc 15 e5 b9
       -0.0016438158 -0.0012713722 -0.0017581411 -0.00043694663
000150 7d 4c 9a ba f1 2e 1c 37 08 1b b3 ba 57 9a ff b9
       -0.0011772063 9.309254e-06 -0.0013664672 -0.00048752382
000160 44 8f 64 ba 91 b5 e7 ba 02 83 af 3a 8f ae b1 3a
       -0.0008718858 -0.0017678012 0.0013390484 0.0013556051
000170 86 7c b6 35 e5 02 d5 ba 06 97 16 b2 02 d1 2e 38
       1.3596298e-06 -0.0016251473 -8.765488e-09 4.1679486e-05
000180 4b 5c c7 37 01 18 1f 36 0f d9 e4 37 b8 52 84 38
       2.3765626e-05 2.3706818e-06 2.7280794e-05 6.309658e-05
000190 c4 f4 69 38 d7 e4 8f 38 6e 57 cd 37 84 75 88 38
       5.5779485e-05 6.861396e-05 2.4478617e-05 6.506874e-05
0001a0 c1 2e ab 37 dc 90 61 38 58 c3 a8 37 c1 c3 13 38
       2.040656e-05 5.377909e-05 2.0118125e-05 3.522984e-05
0001b0 78 2e 70 38 7c cf 90 38 b5 b4 94 38 37 5d 61 b5
       5.7263736e-05 6.905102e-05 7.090849e-05 -8.395468e-07
0001c0 4d de 45 b6 68 9c 09 b2 00 00 00 00 00 00 00 00
       -2.9484684e-06 -8.010012e-09 0.0 0.0
0001d0 00 00 00 00 00 00 00 00 00 00 00 00 00 00 00 00
       0.0 0.0 0.0 0.0
0001e0 00 00 00 00 00 00 00 00 00 00 00 00 00 00 00 00
       0.0 0.0 0.0 0.0
0001f0 00 00 00 00 00 00 00 00 00 00 00 00 00 00 00 00
       0.0 0.0 0.0 0.0
000200 00 00 00 00 00 00 00 00 00 00 00 00 00 00 00 00
       0.0 0.0 0.0 0.0
000210 00 00 00 00 47 e9 02 31 5c 07 84 af 14 d1 05 30
       0.0 1.9050093e-09 -2.401589e-10 4.8682236e-10
000220 d2 62 25 31 92 47 3f 31 79 7d 3e 31 cc 7a 54 31
       2.4066833e-09 2.783484e-09 2.7719962e-09 3.0919862e-09
000230 ca 1f 2a 31 88 e9 83 30 2d 31 b5 30 f7 d1 2b 31
       2.4756326e-09 9.597878e-10 1.318346e-09 2.5003126e-09
000240 d0 88 de 30 ec f9 09 31 61 87 5e 31 00 00 00 00
       1.619151e-09 2.0078188e-09 3.2382206e-09 0.0
000250 5b bb 13 2b 00 00 00 00 00 00 00 00 5e 8a 5e 31
       5.24849e-13 0.0 0.0 3.2383904e-09
000260 a4 75 c2 b9 5c 3c 49 ba 37 2a 80 ba 9e a1 aa ba
       -0.00037090213 -0.0007676536 -0.0009778206 -0.0013018136
000270 cd 13 c4 ba 55 8b b9 ba 6d 3e d0 ba b0 8d d0 b9
       -0.0014959514 -0.0014155904 -0.0015887745 -0.00039778417
000280 20 86 a2 b9 ec d2 67 b9 40 d3 9e ba 87 e2 e7 b9
       -0.0003099898 -0.00022108451 -0.0012117401 -0.0004422853
000290 51 ce 3f ba 60 12 dd ba 69 5d 20 ba ca 02 3e ba
       -0.00073168153 -0.0016866438 -0.0006117435 -0.00072483404
0002a0 db f7 42 36 34 45 fd 37 b7 5b 69 38 2a bf 27 38
       2.9052524e-06 3.0192175e-05 5.5636945e-05 3.9993938e-05
0002b0 ef 55 a5 b3 db fa 83 36 47 9e f6 37 b8 0e 4c 38
       -7.6990425e-08 3.9333077e-06 2.9399189e-05 4.8651098e-05
0002c0 d1 68 3a 38 e8 36 5c 38 60 73 da 37 d0 8a 19 38
       4.4443474e-05 5.2503223e-05 2.604135e-05 3.660732e-05
0002d0 69 66 9c 37 03 e3 2f 38 24 a7 9c 37 55 60 f9 37
       1.8644338e-05 4.1934672e-05 1.867448e-05 2.9727971e-05
0002e0 3f e7 64 38 3f e7 64 38 3f e7 64 38 e3 d0 4a 36
       5.45748e-05 5.45748e-05 5.45748e-05 3.0221934e-06
0002f0 00 00 00 00 24 91 19 2d 00 00 00 00 00 00 00 00
       0.0 8.729271e-12 0.0 0.0
000300 00 00 00 00 00 00 00 00 00 00 00 00 00 00 00 00
       0.0 0.0 0.0 0.0
000310 00 00 00 00 00 00 00 00 00 00 00 00 00 00 00 00
       0.0 0.0 0.0 0.0
000320 00 00 00 00 00 00 00 00 00 00 00 00 00 00 00 00
       0.0 0.0 0.0 0.0
000330 00 00 00 00 00 00 00 00 00 00 00 00 00 00 00 00
       0.0 0.0 0.0 0.0
000340 00 00 00 00 92 6e 5a 37 fe 78 79 b7 15 4b d0 36
       0.0 1.3019557e-05 -1.4869727e-05 6.2076238e-06
000350 73 10 2d b5 5d c6 bf 36 e2 05 d8 36 35 f6 e1 36
       -6.447146e-07 5.715336e-06 6.4379865e-06 6.734185e-06
000360 2b 1c 4d 37 38 a8 04 36 6d 32 e4 36 86 77 c6 36
       1.22255105e-05 1.976745e-06 6.8008e-06 5.914774e-06
000370 fc cf 00 37 1d 77 06 37 20 51 fb 36 0a a8 b4 37
       7.67782e-06 8.014756e-06 7.489827e-06 2.1535921e-05
000380 0a a8 b4 37 00 00 00 00 20 51 fb 36 00 00 00 00
       2.1535921e-05 0.0 7.489827e-06 0.0
000390 7d 0b 0b 39 9d 93 1f b8 6d 3c 8d 35 1c 11 2b b8
       0.00013260353 -3.804603e-05 1.0522905e-06 -4.078551e-05
0003a0 1d e1 86 38 3f 5f 87 38 c2 cb 9d 38 75 3c 8e 38
       6.4315485e-05 6.4550426e-05 7.524296e-05 6.782349e-05
0003b0 02 95 14 38 c1 a2 9b 38 db 82 9e 38 89 2b ae 37
       3.5424724e-05 7.421291e-05 7.558401e-05 2.0762689e-05
0003c0 09 b3 91 38 8b 88 08 39 d2 70 f9 37 be 16 af 38
       6.947487e-05 0.00013020837 2.973565e-05 8.348886e-05
0003d0 1e d9 10 b6 44 a5 f5 b5 00 00 00 00 a2 fe d5 3c
       -2.158405e-06 -1.8302021e-06 0.0 0.026122395
0003e0 50 e4 d9 3b 06 96 f0 3c d5 21 18 3d ee d1 4c 3d
       0.0066495314 0.029368412 0.03714164 0.050004892
0003f0 80 aa 44 3d be f5 5e 3d 37 05 ef 3c f2 ac 98 3c
       0.048014164 0.054433577 0.029177291 0.018637154

exp_avg_sq f4 [32, 19]
000000 bc 0b 8c 34 c4 65 a7 34 d6 4e 12 35 f0 b0 b4 35
       2.608557e-07 3.1180218e-07 5.450396e-07 1.3462541e-06
000010 0b 55 11 36 18 c2 fc 35 ce ac 1b 36 87 0b 13 34
       2.1656185e-06 1.8831952e-06 2.3197385e-06 1.3694635e-07
000020 69 13 7f 34 f1 51 0e 35 5d fa c0 35 e5 ea 2c 34
       2.3755787e-07 5.301836e-07 1.437798e-06 1.6104202e-07
000030 f3 e5 fc 34 ac 96 1d 36 37 75 29 31 72 e3 05 34
       4.7105968e-07 2.3482526e-06 2.4659366e-09 1.2469334e-07
000040 1b aa 63 31 00 00 00 00 00 00 00 00 57 88 84 39
       3.3129541e-09 0.0 0.0 0.00025278583
000050 94 c6 16 39 f0 df 82 38 59 94 99 38 15 19 a4 39
       0.00014379091 6.240595e-05 7.3232404e-05 0.00031299205
000060 8e 98 8e 39 bd 81 a9 39 4d 3e 46 39 2a 81 cd 38
       0.00027198013 0.00032330854 0.0001890596 9.7992204e-05
000070 e5 07 8c 39 f0 b8 68 39 14 dc 18 38 b9 86 de 38
       0.00026708763 0.00022194139 3.6444588e-05 0.00010610879
000080 90 87 95 39 ff bc c5 39 97 34 92 39 db 5b ac 35
       0.00028520497 0.0003771558 0.00027886473 1.2841732e-06
000090 05 2e 62 36 2f 7f 2d 36 cc 25 ca 39 24 66 5c 39
       3.3703411e-06 2.585304e-06 0.00038556603 0.00021018885
0000a0 c3 05 d2 38 95 29 e7 38 40 05 04 3a da ce e4 39
       0.000100146535 0.000110226836 0.00050361827 0.00043641665
0000b0 64 58 07 3a 1a e1 82 39 e1 9a 20 39 0c d5 dd 39
       0.00051630125 0.00024963246 0.00015316486 0.00042311137
0000c0 40 1e ba 39 e6 44 75 38 e4 70 31 39 e7 e8 e7 39
       0.00035499223 5.847672e-05 0.0001692209 0.0004423328
0000d0 6d 2c 16 3a 79 f6 f5 39 44 72 37 36 ce 2e c6 36
       0.0005728666 0.00046913678 2.7335636e-06 5.9063086e-06
0000e0 98 14 75 36 2e 8d b0 37 0a 12 48 36 6b 6c 31 36
       3.6519832e-06 2.1046577e-05 2.9812823e-06 2.6438163e-06
0000f0 6c b1 4a 36 ee 31 a9 37 30 8f 97 37 ff 2c bd 37
       3.0203619e-06 2.016962e-05 1.806728e-05 2.2551509e-05
000100 9e 0e 52 37 84 90 3e 37 9b 45 71 37 e6 58 81 37
       1.2520379e-05 1.135853e-05 1.4380926e-05 1.5419395e-05
000110 92 bd 4e 36 85 9a 10 37 38 24 ff 36 d1 e1 ce 37
       3.0806737e-06 8.619046e-06 7.6038086e-06 2.4662268e-05
000120 ff 29 c5 37 00 00 00 00 00 00 00 00 76 16 71 35
       2.3503786e-05 0.0 0.0 8.981218e-07
000130 8a 3d 82 38 2c 0f ee 37 ed c5 72 37 94 80 df 37
       6.2103456e-05 2.8378876e-05 1.4470407e-05 2.6643545e-05
000140 c2 ed 8f 38 59 a2 84 38 0a 01 a7 38 6a a6 88 38
       6.863057e-05 6.32449e-05 7.963374e-05 6.5159824e-05
000150 c1 8d df 37 77 f9 28 38 5d 3c 58 38 71 95 10 37
       2.664968e-05 4.0286654e-05 5.155463e-05 8.617863e-06
000160 4d ae d2 37 2e 38 ac 38 d7 fc 93 38 47 65 98 38
       2.5115116e-05 8.2120634e-05 7.056601e-05 7.266789e-05
000170 9d 2c d5 33 c1 3a 03 36 6d 4d 0c 35 db 72 81 38
       9.9267005e-08 1.955472e-06 5.2266734e-07 6.172593e-05
000180 60 d7 c0 37 04 c3 2d 37 b9 c4 7d 37 d2 58 a9 38
       2.2988475e-05 1.0357009e-05 1.5125778e-05 8.075092e-05
000190 ed 92 90 38 18 c6 b2 38 0f 4e ec 37 65 b2 1c 38
       6.893822e-05 8.524599e-05 2.8169741e-05 3.735944e-05
0001a0 74 44 73 38 21 04 72 38 f1 ce 21 37 4c b2 eb 37
       5.7999467e-05 5.770114e-05 9.64453e-06 2.8097209e-05
0001b0 c6 68 a4 38 b5 e1 bd 38 b5 f9 bd 38 67 23 d2 35
       7.839645e-05 9.0542635e-05 9.058734e-05 1.5656523e-06
0001c0 81 62 87 35 ca f8 a8 34 00 00 00 00 00 00 00 00
       1.0086952e-06 3.1473456e-07 0.0 0.0
0001d0 00 00 00 00 00 00 00 00 00 00 00 00 00 00 00 00
       0.0 0.0 0.0 0.0
0001e0 00 00 00 00 00 00 00 00 00 00 00 00 00 00 00 00
       0.0 0.0 0.0 0.0
0001f0 00 00 00 00 00 00 00 00 00 00 00 00 00 00 00 00
       0.0 0.0 0.0 0.0
000200 00 00 00 00 00 00 00 00 00 00 00 00 00 00 00 00
       0.0 0.0 0.0 0.0
000210 00 00 00 00 b6 3a 4d 35 fa 83 df 34 48 22 e5 34
       0.0 7.6453887e-07 4.1633012e-07 4.2679517e-07
000220 8a 2a 90 35 ca e9 b9 35 82 d6 bf 35 5e 2f ef 35
       1.0741217e-06 1.3851616e-06 1.4293039e-06 1.7820673e-06
000230 20 00 e1 35 d8 7c 20 34 06 d0 91 34 0e 9c 94 35
       1.6763843e-06 1.4946579e-07 2.7159712e-07 1.1072277e-06
000240 34 80 45 34 e7 65 05 35 2d 41 24 35 00 00 00 00
       1.8393695e-07 4.969465e-07 6.1189604e-07 0.0
000250 26 5b bf 34 00 00 00 00 00 00 00 00 6a 4c d4 34
       3.5642842e-07 0.0 0.0 3.9543676e-07
000260 34 59 88 38 69 db 35 38 57 bd 2a 37 ec 74 73 37
       6.501601e-05 4.3358104e-05 1.0176874e-05 1.4511152e-05
000270 7f 7d 67 38 38 b0 4b 38 c0 67 7e 38 45 4e 9f 38
       5.519157e-05 4.8563088e-05 6.0654944e-05 7.59629e-05
000280 03 f5 d3 37 04 a2 43 38 26 45 2b 38 88 45 e5 36
       2.5267253e-05 4.664251e-05 4.0833977e-05 6.8328263e-06
000290 e9 f3 b0 37 75 74 71 38 6a e6 9f 38 cd e0 50 38
       2.1094414e-05 5.7567337e-05 7.624629e-05 4.9800426e-05
0002a0 16 e4 0c 35 bd 38 c2 33 35 b1 20 35 01 e2 ac 36
       5.2485973e-07 9.0441496e-08 5.9862515e-07 5.1523098e-06
0002b0 0f 40 2d 36 06 59 01 36 81 ef 68 36 2c 21 36 37
       2.5816296e-06 1.9274316e-06 3.4710104e-06 1.0855769e-05
0002c0 5f 1f 14 37 0c 51 4b 37 1b 78 11 36 9c fa e4 36
       8.828792e-06 1.2118613e-05 2.1676594e-06 6.8241043e-06
0002d0 c6 ea f4 35 6b 86 00 37 71 f8 9f 35 3f 90 5a 36
       1.8247745e-06 7.660691e-06 1.1918729e-06 3.2568494e-06
0002e0 c1 b5 33 37 c6 d7 21 37 a4 fc 5a 37 ff 4f c3 34
       1.0711549e-05 9.6465865e-06 1.3052635e-05 3.6379785e-07
0002f0 00 00 00 00 6e f3 94 31 00 00 00 00 00 00 00 00
       0.0 4.3350417e-09 0.0 0.0
000300 00 00 00 00 00 00 00 00 00 00 00 00 00 00 00 00
       0.0 0.0 0.0 0.0
000310 00 00 00 00 00 00 00 00 00 00 00 00 00 00 00 00
       0.0 0.0 0.0 0.0
000320 00 00 00 00 00 00 00 00 00 00 00 00 00 00 00 00
       0.0 0.0 0.0 0.0
000330 00 00 00 00 00 00 00 00 00 00 00 00 00 00 00 00
       0.0 0.0 0.0 0.0
000340 00 00 00 00 f8 04 e0 30 19 30 a5 30 28 f1 a6 31
       0.0 1.6299557e-09 1.2019e-09 4.858652e-09
000350 bc c7 34 32 5e b2 88 32 5c eb 72 32 2f 23 97 32
       1.0522793e-08 1.5913596e-08 1.41397685e-08 1.7594713e-08
000360 41 56 d5 30 f8 da a5 30 09 c5 2b 31 2b 03 36 32
       1.5522305e-09 1.2067565e-09 2.4995777e-09 1.0594515e-08
000370 ea 44 bc 30 f9 90 81 31 00 ca a3 32 2c 16 f9 30
       1.3698387e-09 3.7708756e-09 1.9067556e-08 1.8123436e-09
000380 2c 16 f9 30 00 00 00 00 32 47 ac 30 00 00 00 00
       1.8123436e-09 0.0 1.2534882e-09 0.0
000390 1f 34 89 36 5c 13 8b 36 19 65 c2 35 76 20 d5 35
       4.088986e-06 4.1447765e-06 1.448355e-06 1.5879184e-06
0003a0 7f 37 ed 36 03 e1 c6 36 13 9e d6 36 2d d3 bd 35
       7.069611e-06 5.9270546e-06 6.3960993e-06 1.4143058e-06
0003b0 43 05 7b 35 c2 79 0e 37 dd 49 99 36 d0 78 45 35
       9.3512443e-07 8.4922085e-06 4.568354e-06 7.3564024e-07
0003c0 c1 ee 05 36 7c f9 79 36 21 fa 99 36 7d 01 02 37
       1.9957517e-06 3.724911e-06 4.588874e-06 7.74895e-06
0003d0 58 7c 92 32 e8 8f 64 33 00 00 00 00 97 ed 15 3a
       1.7053182e-08 5.321627e-08 0.0 0.00057193026
0003e0 03 49 f1 38 76 de 02 39 c9 a4 4c 39 d7 09 5a 3a
       0.00011505375 0.00012480639 0.00019516343 0.0008317506
0003f0 d5 90 3c 3a 91 98 71 3a 29 90 97 39 af a7 bf 39
       0.00071932125 0.00092161546 0.00028908372 0.00036555293

exp_avg f4 [32]
000000 ae b7 c5 b5 d6 bf f2 bb e8 ff 4b bc cf 66 a6 32
       -1.4731102e-06 -0.0074081225 -0.0124511495 1.9371695e-08
000010 b6 4e e6 ba 20 a6 94 38 00 00 00 00 be 8b 5e 31
       -0.0017571065 7.088133e-05 0.0 3.2384686e-09
000020 af 76 d3 ba 3f e7 64 38 00 00 00 00 20 51 fb 36
       -0.0016133393 5.45748e-05 0.0 7.489827e-06
000030 be 16 af 38 3b e8 65 3d b5 9d a7 36 b7 87 0a 29
       8.348886e-05 0.056129675 4.9953474e-06 3.075987e-14
000040 f7 8c ca ba 2e 72 e8 36 00 00 00 00 86 d5 b3 2a
       -0.0015453388 6.927431e-06 0.0 3.194495e-13
000050 b1 77 d7 3b 00 00 00 00 ec 12 c6 bc cd 94 4d b7
       0.0065755476 0.0 -0.024178945 -1.2253598e-05
000060 9d 29 4d bc 95 35 87 2c 22 d2 80 b8 00 00 00 00
       -0.012522128 3.8428796e-12 -6.142656e-05 0.0
000070 24 90 f5 2c 4f e8 42 bc 25 d0 8c ba 3c 79 76 3a
       6.9793216e-12 -0.011896207 -0.0010743184 0.00094022206

exp_avg_sq f4 [32]
000000 f1 05 2b 36 3b c7 c8 39 cc 86 20 3a 50 f1 dc 37
       2.5484444e-06 0.0003829541 0.0006123602 2.6338414e-05
000010 e4 51 ba 38 0d 4d d0 38 00 00 00 00 18 31 02 36
       8.8844245e-05 9.932565e-05 0.0 1.9400086e-06
000020 4a d9 93 38 a4 fc 5a 37 00 00 00 00 00 ca a3 32
       7.0499795e-05 1.3052635e-05 0.0 1.9067556e-08
000030 f4 58 06 37 a4 64 88 3a 15 41 62 36 17 53 c1 31
       8.007733e-06 0.001040597 3.3714507e-06 5.6264855e-09
000040 fa 33 8f 38 51 ae 12 36 00 00 00 00 ce 9b 72 35
       6.828453e-05 2.185716e-06 0.0 9.037875e-07
000050 08 9f ba 39 00 00 00 00 3e 7a 31 3a c7 92 03 39
       0.00035595172 0.0 0.00067702297 0.00012547812
000060 48 77 13 39 f6 d5 2e 37 9a 60 b2 37 00 00 00 00
       0.00014063448 1.0421025e-05 2.1264237e-05 0.0
000070 d5 1a e7 35 23 4d de 39 bf 3a 84 39 02 a1 e3 38
       1.721865e-06 0.0004240061 0.0002522077 0.000108541935

exp_avg f4 [3, 32]
000000 52 8f 33 35 53 c4 a6 3d cf 7f d1 3d 8e a6 83 b3
       6.6891255e-07 0.081429146 0.10229456 -6.130459e-08
000010 ee 1d f1 39 97 94 83 b8 00 00 00 00 f5 8b 03 30
       0.000459894 -6.274244e-05 0.0 4.7856413e-10
000020 33 65 bb 3c 12 c0 2f 38 00 00 00 00 0a ef e3 37
       0.022875404 4.190213e-05 0.0 2.717182e-05
000030 33 fa 40 b9 4b 24 f9 3d 96 f6 61 b6 27 9e 5d 29
       -0.00018403753 0.121651255 -3.3671145e-06 4.9209033e-14
000040 0f 62 0d 3b ad af 7d 36 00 00 00 00 0c f2 f5 a9
       0.002157334 3.7802195e-06 0.0 -1.0922174e-13
000050 5d 94 10 3d 00 00 00 00 d1 83 da 3d 15 62 f6 b8
       0.03529774 0.0 0.10669673 -0.00011748463
000060 1c da a2 3b ce 02 42 2c 30 5c 69 b9 00 00 00 00
       0.0049698483 2.7570615e-12 -0.00022254954 0.0
000070 68 a3 46 ab bd c7 a2 3c d7 6e 44 3a ce 25 b0 38
       -7.05705e-13 0.019870633 0.0007493323 8.399376e-05
000080 82 f6 4a 35 de a3 c8 bc 09 23 d3 bc a9 e3 fe ae
       7.560958e-07 -0.0244922 -0.025773542 -1.1591023e-10
000090 d5 5c 27 b9 9b c7 e6 b7 00 00 00 00 2d 83 d4 ad
       -0.00015960944 -2.7511085e-05 0.0 -2.4159863e-11
0000a0 ec 0a d3 bb c6 4f b0 b7 00 00 00 00 6b 2b 32 b8
       -0.006440511 -2.1017982e-05 0.0 -4.2478943e-05
0000b0 74 96 bb 38 91 fc 0c bd b7 0f e9 b1 4c 75 24 29
       8.944879e-05 -0.034420554 -6.782979e-09 3.6517054e-14
0000c0 f1 d8 64 b9 8a e2 3a b7 00 00 00 00 3b b3 b7 a8
       -0.00021824591 -1.1139209e-05 0.0 -2.039481e-14
0000d0 82 0e 86 bc 00 00 00 00 67 b0 05 bd 9e 79 b9 b9
       -0.01636434 0.0 -0.032638934 -0.00035376562
0000e0 ec 78 a3 b8 2f 88 8b aa bf 58 f9 b8 00 00 00 00
       -7.794969e-05 -2.4785856e-13 -0.000118897755 0.0
0000f0 f4 52 14 ac 72 b9 b6 bb 52 70 73 b9 df fb 55 3a
       -2.1078113e-12 -0.005576306 -0.00023216128 0.0008162837
000100 e8 42 bf b5 b4 36 69 bd 0e b7 9c bd 4a e6 83 33
       -1.4250081e-06 -0.056936935 -0.076521024 6.142052e-08
000110 85 6f 9d b9 7d 46 bd 38 00 00 00 00 a9 cf f9 af
       -0.00030028462 9.025352e-05 0.0 -4.5440388e-10
000120 76 a2 86 bc 5e 30 af b7 00 00 00 00 ce 67 80 37
       -0.01643489 -2.0884148e-05 0.0 1.5307127e-05
000130 fc 5d c6 38 03 a6 b2 bd 20 6b 62 36 bb 09 c1 a9
       9.458882e-05 -0.087230705 3.373898e-06 -8.57261e-14
000140 07 29 fe ba 40 ed f6 36 00 00 00 00 65 ef 11 2a
       -0.0019390889 7.358991e-06 0.0 1.2961644e-13
000150 3a 1a 9b bc 00 00 00 00 9f ab 97 bd 23 12 f7 39
       -0.018933404 0.0 -0.07405781 0.00047125024
000160 39 4c a0 bb be 91 30 ac 47 04 b3 39 00 00 00 00
       -0.004891899 -2.5092007e-12 0.00034144727 0.0
000170 cc fb 45 2c c8 32 6a bc c6 92 07 ba 98 00 6c ba
       2.813516e-12 -0.014294334 -0.0005171712 -0.0009002774

exp_avg_sq f4 [3, 32]
000000 d2 31 3f 35 91 d4 a4 3b 25 c2 cd 3b fa 9d 44 37
       7.122554e-07 0.0050302227 0.0062792473 1.1719292e-05
000010 a2 29 fa 38 2e ff 3d 3a 00 00 00 00 0c 4d 97 35
       0.00011928684 0.00072478026 0.0 1.12728e-06
000020 56 22 26 3b 8f 57 f8 36 00 00 00 00 93 67 4c 32
       0.0025350056 7.401169e-06 0.0 1.1897913e-08
000030 ef 76 72 38 ca 8a f3 3b 62 e6 ac 37 09 fb b2 32
       5.780806e-05 0.0074323164 2.0611278e-05 2.0836085e-08
000040 d5 be 37 3a 95 b8 a5 35 00 00 00 00 3a 85 8c 33
       0.0007009332 1.2347178e-06 0.0 6.543492e-08
000050 ab 14 66 3a 00 00 00 00 0f 64 bd 3b 4f ed eb 39
       0.00087768835 0.0 0.00577975 0.00044999502
000060 09 ad 8c 3a 7c 07 45 37 a9 70 f1 38 00 00 00 00
       0.0010732721 1.1743858e-05 0.0001151276 0.0
000070 f2 38 63 34 9d e6 11 3b 13 12 07 39 72 73 82 39
       2.1161739e-07 0.00222627 0.00012881336 0.00024881546
000080 14 75 41 34 7a 3d 8a 3b 1c b0 d0 3b 2e 2d 94 36
       1.8017118e-07 0.0042187544 0.00636865 4.4160033e-06
000090 9f dd 11 39 ff 39 24 3a 00 00 00 00 5a 9d aa 33
       0.00013910838 0.00062647456 0.0 7.944864e-08
0000a0 5a 2b 19 3b b7 bf 0c 37 00 00 00 00 27 20 8e 31
       0.0023371787 8.389287e-06 0.0 4.1363992e-09
0000b0 58 6f 73 38 58 f5 b7 3b e5 21 d1 37 e6 db 43 32
       5.803941e-05 0.005613964 2.4930525e-05 1.1400493e-08
0000c0 1e f8 5b 3a 8a 20 cc 36 00 00 00 00 a5 51 4b 33
       0.00083911594 6.083462e-06 0.0 4.7338876e-08
0000d0 0d 73 3e 3a 00 00 00 00 7c 53 a1 3b df a6 af 39
       0.00072650687 0.0 0.004923282 0.0003350293
0000e0 a5 b3 5b 3a 16 c4 9e 35 ed d9 ba 37 00 00 00 00
       0.0008380956 1.1828986e-06 2.2274407e-05 0.0
0000f0 0e 4f 7e 34 c2 4b ff 3a 4f 81 26 39 56 08 2d 39
       2.3684353e-07 0.0019477534 0.00015879165 0.00016501671
000100 b2 77 71 34 d0 58 a7 3b be e8 eb 3b ea e8 61 37
       2.2488419e-07 0.005107023 0.007199376 1.3465275e-05
000110 12 b1 68 39 94 4d 81 3a 00 00 00 00 2f 11 d2 35
       0.00022191208 0.0009865039 0.0 1.565122e-06
000120 95 7b 38 3b a0 b1 82 36 00 00 00 00 9c f1 70 31
       0.0028149833 3.89498e-06 0.0 3.5061936e-09
000130 a0 66 15 38 8e 8a 04 3c 66 3d 05 38 36 6c 87 33
       3.5619945e-05 0.008089675 3.1766853e-05 6.306111e-08
000140 53 fb 4a 3a c4 e7 55 36 00 00 00 00 85 40 38 33
       0.00077431387 3.1874379e-06 0.0 4.289952e-08
000150 c0 10 74 3a 00 00 00 00 54 cb c6 3b bd b0 0b 3a
       0.0009310357 0.0 0.006066719 0.0005328765
000160 a4 e4 7f 3a 4d 3f ed 36 60 b0 f6 38 00 00 00 00
       0.0009761548 7.0705196e-06 0.000117630465 0.0
000170 85 90 d8 34 f6 26 1a 3b bd 7a fd 38 9c 1b 50 39
       4.0338287e-07 0.0023521758 0.00012086842 0.00019846711

exp_avg f4 [3]
000000 46 d4 00 3e 5d 27 14 bd e0 94 b7 bd
       0.12580976 -0.036170352 -0.089639425

exp_avg_sq f4 [3]
000000 1a 03 dd 3b 49 f8 b3 3b 58 61 de 3b
       0.0067447545 0.0054922444 0.0067865066
