models/rl_agents/performance.pth (torch, 14454 bytes, 12 tensors)

fc1.weight f4 [32, 19]
0	0x3f351e46	0.7074932
1	0xbe000396	-0.12501368
2	0xbe372fa1	-0.17889263
3	0xbf16c328	-0.58891535
4	0x3e9be354	0.30446875
5	0xbd997d64	-0.074946195
6	0x3e9b3b7f	0.3031883
7	0x3f3764da	0.7163826
8	0x3e527edd	0.20556207
9	0x3f069034	0.52563787
10	0x3e8b9443	0.27261552
11	0x3e7225a9	0.23647179
12	0x3e4de2c0	0.2010603
13	0x3eb1e477	0.34744617
14	0x3d465b2b	0.04842679
15	0x3ec191fa	0.37806684
16	0x3d306a23	0.04306997
17	0x3dcd1894	0.100144535
18	0x3e3a60d1	0.18200995
19	0xbd2bbb88	-0.04192689
20	0xbd365b4c	-0.04452066
21	0xbdd7dec8	-0.10540539
22	0xbd37358c	-0.0447288
23	0xbd68d394	-0.0568424
24	0xbe64e3d1	-0.2235253
25	0xbe5a9973	-0.21347599
26	0x3c364bc0	0.011126459
27	0x3e0ebc9d	0.13939138
28	0x3e05f7ab	0.13082759
29	0x3da46e8a	0.08028896
30	0x3df9da4a	0.121998385
31	0xbd6507a8	-0.055915505
32	0xbe4b502d	-0.19854803
33	0x3d833e86	0.0640841
34	0xbde212d2	-0.11038746
35	0x3e628891	0.22122408
36	0x3d9d016a	0.07666285
37	0xbd45cfe0	-0.04829395
38	0x3ef3dbce	0.47628635
39	0xbe48ecf0	-0.19621634
40	0xbed5265d	-0.4163083
41	0xbf245495	-0.6419156
42	0x3eb94775	0.3618733
43	0x3ea6a1c3	0.3254529
44	0x3cbf7bc8	0.023374453
45	0x3f29d54b	0.66341084
46	0x3ed95977	0.4245107
47	0x3f2521f4	0.64504933
48	0x3e60d1cc	0.21955031
49	0x3e5c558a	0.21517006
50	0x3e5f18e1	0.21786834
51	0x3e9d9d28	0.30783963
52	0x3db29988	0.0872069
53	0x3c9b84c4	0.018984206
54	0x3dcc8815	0.09986893
55	0x3d909e92	0.07061495
56	0xbd5e31ac	-0.05424659
57	0x3f276dc9	0.65401894
58	0xbe996610	-0.2996068
59	0xbebf7969	-0.37397316
60	0xbf3c5311	-0.7356425
61	0x3dde35d3	0.1085011
62	0x3e8c85f8	0.2744596
63	0x3e137093	0.14398412
64	0x3f36972e	0.7132443
65	0x3f24df6f	0.6440343
66	0x3f13bb15	0.5770734
67	0x3e4c43e9	0.1994778
68	0x3e9bcee4	0.30431283
69	0x3e0cec37	0.13761984
70	0x3e2e49f7	0.17020403
71	0x3ed23aab	0.41060385
72	0x3c31c4f8	0.010850184
73	0x3e206f95	0.15667565
74	0x3ea679a6	0.32514685
75	0x3e190497	0.14943157
76	0xbe059708	-0.13045895
77	0xbd82449c	-0.063607424
78	0xbe782c90	-0.24235749
79	0xbe56ca97	-0.2097572
80	0xbd1c4559	-0.038152073
81	0x3e05c340	0.13062763
82	0x3ce3c60f	0.027804403
83	0xbe610de7	-0.2197796
84	0xbe3eb4e4	-0.18623692
85	0xbe1041d3	-0.1408761
86	0x3c61c208	0.013779171
87	0xbe63f434	-0.22261125
88	0x3e086068	0.13318026
89	0xbe6745a1	-0.22585155
90	0x3d27dde6	0.040983103
91	0x3e257f14	0.16161758
92	0xbe21dfbc	-0.15808004
93	0x3e15b988	0.14621556
94	0x3e01a4f9	0.12660588
95	0x3e170948	0.14749634
96	0xbc06afc8	-0.00822062
97	0xbdab0b66	-0.083517835
98	0x3df46973	0.11934175
99	0xbe150700	-0.14553452
100	0x3ccad61e	0.024760302
101	0xbdf5dee6	-0.12005405
102	0xbdc79ff7	-0.09747308
103	0xbcc01d55	-0.023451487
104	0xbe3ae72b	-0.18252246
105	0xbe0107a9	-0.12600578
106	0xbe843dd1	-0.25828412
107	0xbd46e2f9	-0.0485563
108	0x3d933409	0.07187659
109	0x3d2ef9df	0.042718764
110	0xbc19a9c8	-0.009378858
111	0x3de5a901	0.112138756
112	0xbdbaa80d	-0.091140844
113	0x3e2fffa8	0.17187369
114	0xbe4393c6	-0.1909934
115	0x3d9d74dd	0.076883055
116	0xbe651433	-0.22370987
117	0x3e077f27	0.13232099
118	0xbdae1a41	-0.08501101
119	0x3e23134c	0.1592533
120	0x3e033949	0.12814821
121	0xbe2e6c10	-0.1703341
122	0x3dc8eeee	0.09811197
123	0xbe810698	-0.25200343
124	0xbe56b41f	-0.20967148
125	0xbe30fc16	-0.17283663
126	0xbe157009	-0.1459352
127	0xbe768487	-0.24073993
128	0xbe2d6352	-0.16932419
129	0xbe3ac4c7	-0.18239127
130	0x3e3b6d6f	0.18303464
131	0xbe12d604	-0.14339453
132	0x3d50d3bc	0.050983176
133	0x3c918455	0.017763296
134	0x3dce6558	0.100779235
135	0xbe1931c7	-0.14960395
136	0x3e4461c6	0.19177923
137	0x3df0dedb	0.11761256
138	0x3e008373	0.12550144
139	0xbd291835	-0.04128285
140	0x3c716bf5	0.014735212
141	0xbe0a6f41	-0.13519002
142	0x3e1c94aa	0.15291086
143	0xbd4f44fe	-0.050602905
144	0xbe17a9bc	-0.14810842
145	0xbdd8a13e	-0.105776295
146	0x3e452bd5	0.19255002
147	0xbe77bc7f	-0.24193
148	0xbe519881	-0.20468332
149	0x3e8d66b4	0.2761742
150	0x3ce57aa6	0.028012585
151	0xbe10aaa2	-0.14127591
152	0xbcd1d968	-0.025616363
153	0x3e241ec4	0.16027361
154	0xbdd0a871	-0.10188378
155	0x3e42e799	0.1903366
156	0xbe47cad7	-0.19510971
157	0xbdbdc3b4	-0.09265843
158	0x3d92bcde	0.0716493
159	0x3dd8253d	0.10553978
160	0xbe004bd7	-0.1252893
161	0x3e1da41a	0.15394631
162	0xbe4fd206	-0.20294961
163	0x37d4bf00	2.536131e-05
164	0xbdf23a6b	-0.118275486
165	0x3d9dcc83	0.07705023
166	0xbe44c2b0	-0.19214892
167	0xbe15818b	-0.14600198
168	0x3c6f7fd0	0.014617875
169	0x3d6503d3	0.05591185
170	0x3e2ef39e	0.1708512
171	0x3db9aaed	0.09065805
172	0xbd4c5123	-0.049882066
173	0xbe3bec2f	-0.18351816
174	0xbdaca8e7	-0.08430653
175	0xbd3e170e	-0.046408705
176	0xbe81c689	-0.25346783
177	0xbe493dc6	-0.19652471
178	0x3cfd7ccd	0.030943299
179	0xbd8b4bc9	-0.06801564
180	0xbe00d746	-0.1258212
181	0x3d7122db	0.05887113
182	0xbe20c317	-0.15699421
183	0x3d3d92d6	0.04628261
184	0x3e36f49c	0.17866749
185	0x3d15fa21	0.036615495
186	0x3dfd22b5	0.123601355
187	0x3db08df6	0.08620827
188	0xbe253611	-0.16133906
189	0xbe53e0bd	-0.206912
190	0x3e27576a	0.1634194
191	0xbdf53e70	-0.119748
192	0xbde1ea0a	-0.110309675
193	0xbdcf821d	-0.10132239
194	0x3d146f17	0.036238756
195	0xbe1a4fb2	-0.15069464
196	0x3de576d9	0.11204309
197	0xbe61d758	-0.22054803
198	0x3e529929	0.20566238
199	0xb9f1e769	-0.00046139516
200	0xbe09c6a6	-0.13454685
201	0x3ce54903	0.027988916
202	0xbd84d80d	-0.06486521
203	0xbdbb48b7	-0.09144729
204	0x3da3ba82	0.07994558
205	0xbd845fe8	-0.06463605
206	0xbd0dd970	-0.034631193
207	0xbe03a442	-0.12855628
208	0xbdc97922	-0.098375574
209	0xbeb93dae	-0.3617987
210	0x3f0024c7	0.5005612
211	0x3f07e643	0.53085726
212	0x3f07f85e	0.53113353
213	0x3d957202	0.07297136
214	0xbdc65609	-0.09684379
215	0xbcdc24ec	-0.026873074
216	0xbe8a6ee5	-0.2703773
217	0xbecde33b	-0.40212426
218	0xbe7865e2	-0.24257615
219	0x3ce9465a	0.028475929
220	0x3df97227	0.12179976
221	0xbbbd605c	-0.005779309
222	0xbde15a64	-0.11003569
223	0x3dde864e	0.1086546
224	0x3e246aa9	0.16056313
225	0xbdf2631c	-0.1183531
226	0xbe462312	-0.19349316
227	0x3def39b5	0.116809286
228	0xbc2e83e0	-0.010651559
229	0x3db5d90e	0.088792905
230	0x3e3bd1b7	0.18341719
231	0xbd89ecd0	-0.067346215
232	0xbe217fcc	-0.15771407
233	0xbde7af35	-0.11312715
234	0xbde4d888	-0.111741126
235	0x3de7abe2	0.11312081
236	0x3e14f69b	0.14547198
237	0x3d586514	0.05283077
238	0xbe41bd05	-0.18919761
239	0x3d91342a	0.07090028
240	0x3e192067	0.14953767
241	0xbe2eedae	-0.17082855
242	0xbe5656c2	-0.20931533
243	0xbd8d032a	-0.06885369
244	0x3dcac5fa	0.09901042
245	0x3db56a6a	0.088581875
246	0x3e58417f	0.21118735
247	0x3f41a5da	0.75643694
248	0xbdebb8d2	-0.11509861
249	0xbf0e1846	-0.5550579
250	0xbeafaea0	-0.34312916
251	0x3e5432e7	0.20722543
252	0x3d3310fa	0.043717362
253	0x3e3850cf	0.17999576
254	0x3ed749a3	0.42048368
255	0x3f0d336d	0.55156595

fc1.bias f4 [32]
0	0x3eb87d91	0.360333
1	0x3d9bf48e	0.076150045
2	0x3eb931bd	0.3617076
3	0x3e86b609	0.26310757
4	0xbdec366a	-0.11533816
5	0x3da09942	0.078417316
6	0x3e06981b	0.13143961
7	0xbe6cfc51	-0.23143126
8	0xbe7d30a2	-0.24725583
9	0xbdafe837	-0.08589213
10	0xbe694ff9	-0.22784413
11	0x3d57ea97	0.052713957
12	0xbdc59e20	-0.096493006
13	0x3e753d7c	0.23949236
14	0x3e211620	0.15731096
15	0x3e2dc985	0.16971405
16	0xbe07af9c	-0.13250583
17	0x3d909caf	0.07061135
18	0x3de5d09a	0.11221428
19	0x3d55d7ab	0.05220763
20	0x3e597717	0.21236835
21	0x3e3791fd	0.17926784
22	0xbe51c374	-0.20484716
23	0x3ebe2571	0.3713794
24	0x3e0fa715	0.1402858
25	0xbd56bcb2	-0.052426048
26	0xbd8f1d7d	-0.06988046
27	0x3db60713	0.08888068
28	0x3e72fd37	0.23729406
29	0x3dbe740b	0.09299477
30	0x3e4e686d	0.20157023
31	0xbe489c92	-0.19590977

fc2.weight f4 [3, 32]
0	0x3ea1a1f3	0.3156887
1	0x3e0e58fd	0.13901134
2	0x3ef7002c	0.4824232
3	0x3f0b085a	0.5430962
4	0xbc855eb8	-0.016280517
5	0xbd597408	-0.05308917
6	0xbb82ad3b	-0.003987936
7	0x3d7a0c93	0.061047148
8	0xbcf84e23	-0.030310696
9	0xbdcb746b	-0.09934314
10	0xbe18dba6	-0.14927539
11	0xbefe67a6	-0.49688452
12	0xbe2ebc7e	-0.17064092
13	0x3eeb4c50	0.4595666
14	0xbf0a8cf8	-0.5412135
15	0xbf1e7bf0	-0.61907864
16	0xbce14b4a	-0.027501721
17	0x3f2020a8	0.6254983
18	0x3e05d387	0.13068973
19	0x3f066f52	0.5251361
20	0x3f2353fe	0.63800037
21	0xbf0685f6	-0.5254816
22	0x3dea35d2	0.11436047
23	0x3ec461a1	0.38355735
24	0x3e39ce89	0.18145193
25	0xbdb2004f	-0.08691465
26	0xbf42934a	-0.76005995
27	0x3eabb6ca	0.33537894
28	0x3e9aaca6	0.30209845
29	0x3f0a3f59	0.5400291
30	0x3ec81fae	0.3908667
31	0xbc93abba	-0.018026222
32	0xbe99ead0	-0.3006196
33	0xbd6d7b46	-0.05797889
34	0xbe9c7068	-0.3055451
35	0xbeba16b2	-0.3634544
36	0x3e137d20	0.144032
37	0xbd01279e	-0.031531923
38	0x3df03c92	0.11730303
39	0xbe644cbb	-0.22294895
40	0x3d1f184f	0.03884154
41	0x3d5b8a24	0.053598538
42	0x3daab81d	0.08335898
43	0x3e939e9f	0.28831956
44	0x3d8441dc	0.06457874
45	0xbeee9552	-0.46598297
46	0x3eb402d1	0.351584
47	0x3e615963	0.22006755
48	0xbb88a15a	-0.004169625
49	0xbedfa53f	-0.4368076
50	0xbe31b51e	-0.17354247
51	0xbe623923	-0.22092108
52	0xbec6d8d3	-0.388373
53	0x3ddc0687	0.107434325
54	0xbe249299	-0.16071548
55	0xbea77697	-0.32707664
56	0xbeb3797a	-0.35053617
57	0x3dcbe862	0.09956433
58	0x3e7d5c9e	0.24742362
59	0xbe81085b	-0.25201687
60	0xbeb04557	-0.34427902
61	0xbee5959a	-0.448407
62	0xbe9bf0c3	-0.30457124
63	0x3dd42e78	0.10360426
64	0xbe1e13bf	-0.1543722
65	0x3e124e9b	0.14287798
66	0xbe6bb234	-0.23017198
67	0xbe9f7fad	-0.31152096
68	0x3d96bca3	0.07360198
69	0xbe2e50de	-0.17023036
70	0xbc8cd746	-0.017192494
71	0xbd8f2b2f	-0.069906585
72	0x3da5a9a5	0.08088998
73	0x3df22fd7	0.11825531
74	0xbe1ed706	-0.15511712
75	0x3d1897d6	0.037254177
76	0xbd86bd66	-0.06579094
77	0xbe710f99	-0.23541106
78	0x3e2cfb08	0.16892636
79	0x3e933d92	0.28757912
80	0x3d469b77	0.048488107
81	0xbe200e36	-0.15630421
82	0xbda701f6	-0.08154671
83	0xbe8df1bd	-0.27723494
84	0xbeac98a5	-0.3371021
85	0x3eaaedb5	0.3338448
86	0xbc212e80	-0.009837747
87	0xba53d8e0	-0.0008081328
88	0xbe9bc2bc	-0.30422008
89	0x3dcfa952	0.10139717
90	0x3ea029b8	0.3128183
91	0xbe609644	-0.21932322
92	0xbdfd52f6	-0.12369339
93	0xbe8a61a9	-0.27027634
94	0xbe9686b0	-0.29399633
95	0xbd2a3c61	-0.041561488

fc2.bias f4 [3]
0	0x398e877b	0.0002718529
1	0xbe030dfc	-0.12798303
2	0x3dc7117f	0.09720134

exp_avg f4 [32, 19]
0	0xbc57497d	-0.01314008
1	0x3d20ffc2	0.03930641
2	0x3cef7adc	0.029233389
3	0x3c857b63	0.016294187
4	0x3c9bfa95	0.019040385
5	0x3ca98ddb	0.020697525
6	0x3c8f3407	0.017480863
7	0xbc673692	-0.014112132
8	0xbc2e2c3e	-0.010630665
9	0x3b107b1a	0.002204603
10	0x3c518c0f	0.01278974
11	0x3b4249a0	0.0029645935
12	0x3b8ba705	0.0042618536
13	0x3c8966be	0.016772624
14	0x3d1bbe66	0.038023375
15	0x3cbc5ce1	0.022993507
16	0xb5cc1b6a	-1.5207163e-06
17	0xb82b1fdc	-4.079925e-05
18	0xbb270e8d	-0.002549085
19	0x00000000	0.0
20	0x00000000	0.0
21	0x00000000	0.0
22	0x00000000	0.0
23	0x00000000	0.0
24	0x00000000	0.0
25	0x00000000	0.0
26	0x00000000	0.0
27	0x00000000	0.0
28	0x00000000	0.0
29	0x00000000	0.0
30	0x00000000	0.0
31	0x00000000	0.0
32	0x00000000	0.0
33	0x00000000	0.0
34	0x00000000	0.0
35	0x00000000	0.0
36	0x00000000	0.0
37	0x00000000	0.0
38	0xbca9b02d	-0.02071389
39	0x3d6465b4	0.055761054
40	0x3d20e9ef	0.039285596
41	0x3ca431b9	0.02004324
42	0x3cbf51d9	0.023354458
43	0x3cd2ae91	0.025718005
44	0x3ca9749b	0.020685485
45	0xbcb88972	-0.022526477
46	0xbc858a2e	-0.01630124
47	0x3b1d2f04	0.0023984322
48	0x3c745467	0.014912701
49	0x3b4c8780	0.0031208694
50	0x3b8834ed	0.0041567
51	0x3ca10c63	0.019659227
52	0x3d53f935	0.051751334
53	0x3ceba1e6	0.028763723
54	0xb5d67467	-1.597812e-06
55	0xb87d967e	-6.0460057e-05
56	0xbb7e77dd	-0.0038828768
57	0xbcce3661	-0.025172414
58	0x3d86e1fa	0.0658607
59	0x3d3b2a69	0.045694742
60	0x3cb9ea45	0.022694716
61	0x3cd80bd8	0.026372835
62	0x3ceefde5	0.0291738
63	0x3cbd0b9e	0.023076829
64	0xbce0b27b	-0.027428856
65	0xbca1334f	-0.019677786
66	0x3b275d7d	0.00255379
67	0x3c8789fd	0.01654529
68	0x3b596ead	0.003317754
69	0x3b8c07e0	0.0042733997
70	0x3cb2dabe	0.02183282
71	0x3d777729	0.060416374
72	0x3d05fa33	0.03270931
73	0xb59e0fdf	-1.1776536e-06
74	0xb897e068	-7.24204e-05
75	0xbb9926ad	-0.0046738
76	0x2bf3ee3d	1.7332313e-12
77	0x2b6c4e51	8.395273e-13
78	0x2ba63b88	1.1811533e-12
79	0x2bc83049	1.4224257e-12
80	0x2c5eea5e	3.1678197e-12
81	0x2c56a818	3.050454e-12
82	0x2c729880	3.4474923e-12
83	0x2c0ba82a	1.9846438e-12
84	0x2baf838f	1.2471013e-12
85	0x2bb18678	1.2613929e-12
86	0x2c421b83	2.758433e-12
87	0x2ba912a2	1.2013344e-12
88	0x2bff6ad6	1.8148493e-12
89	0x285fcb08	1.2423012e-14
90	0x2c7c754f	3.5876473e-12
91	0x2c7c754f	3.5876473e-12
92	0x00000000	0.0
93	0x285fcb08	1.2423012e-14
94	0x00000000	0.0
95	0x30b5432b	1.3188574e-09
96	0x2f4de04f	1.8724332e-10
97	0xae77001c	-5.6161395e-11
98	0x30bd6b8e	1.3782129e-09
99	0x30fa7bde	1.8225099e-09
100	0x30e8afa9	1.6930147e-09
101	0x3105d21f	1.9473487e-09
102	0x3090ccf3	1.0535629e-09
103	0x30a3a3bf	1.190635e-09
104	0x308344a3	9.551012e-10
105	0x30d92cdb	1.5801577e-09
106	0x307ef6fb	9.275564e-10
107	0x30a92003	1.2305467e-09
108	0x310ae398	2.0211015e-09
109	0x310abbc1	2.0188369e-09
110	0x3109f95b	2.0077866e-09
111	0xaa2b495a	-1.52133e-13
112	0x2c05c7e6	1.9011403e-12
113	0x30f3d6ff	1.7741683e-09
114	0x28031e7a	7.278569e-15
115	0x2a3471bb	1.602667e-13
116	0x29b059f9	7.831578e-14
117	0x2a17aca1	1.3471387e-13
118	0x2a45d86e	1.7572204e-13
119	0x2a2e4d66	1.5481157e-13
120	0x2a43602f	1.735285e-13
121	0x27571301	2.9847546e-15
122	0x2977ca8c	5.50207e-14
123	0x29983f05	6.761088e-14
124	0x2a1b91ea	1.381739e-13
125	0x2921fcb7	3.5968377e-14
126	0x298ddfae	6.30046e-14
127	0x2a5e2a8b	1.9732321e-13
128	0x00000000	0.0
129	0x00000000	0.0
130	0x00000000	0.0
131	0x00000000	0.0
132	0x00000000	0.0
133	0xb731c2e6	-1.05954e-05
134	0xbac05711	-0.0014674385
135	0xba43208f	-0.0007443511
136	0xbaa7bd54	-0.0012797513
137	0xbac54e73	-0.0015053287
138	0xbaa82fb3	-0.0012831598
139	0xbac42d4d	-0.0014967114
140	0xb7bdc509	-2.2622307e-05
141	0xba138d4d	-0.00056286604
142	0xb9225606	-0.0001548157
143	0xba988d36	-0.0011638764
144	0xb9df4f4d	-0.00042592958
145	0xba3d9dfb	-0.0007233319
146	0xbac66e7e	-0.001513913
147	0x2bc642a5	1.4087244e-12
148	0x2f04c39d	1.2074826e-10
149	0xab20ff4e	-5.7197725e-13
150	0xb6dde8f4	-6.6134326e-06
151	0x00000000	0.0
152	0x38b5e004	8.672479e-05
153	0xb8627e57	-5.4000262e-05
154	0x38ea2a50	0.00011165871
155	0x3923cd3d	0.00015621349
156	0x392709c9	0.00015930006
157	0x39250370	0.00015736907
158	0x393f9251	0.00018269687
159	0x390fbaa3	0.0001370707
160	0x3882219b	6.2051426e-05
161	0x379e86c1	1.8897817e-05
162	0x39146d2d	0.00014155051
163	0x386770df	5.517981e-05
164	0x38c0ea99	9.198971e-05
165	0x3941c5f7	0.00018479662
166	0x308121d0	9.395595e-10
167	0x393e33bc	0.00018139085
168	0x00000000	0.0
169	0x36596171	3.2392238e-06
170	0x393e33b4	0.00018139073
171	0x2dacfbe3	1.9665996e-11
172	0x2c871561	3.8393043e-12
173	0x2ca7ddcb	4.7710494e-12
174	0x2c883f76	3.872398e-12
175	0x2db6d4c7	2.0785497e-11
176	0x2daa2e0d	1.9347213e-11
177	0x2dc082a9	2.1885898e-11
178	0x2d55aa50	1.2145465e-11
179	0x2d6b3bc1	1.33714715e-11
180	0x2d759870	1.39604855e-11
181	0x2d9e221f	1.7977673e-11
182	0x2cfb154c	7.1362135e-12
183	0x2d524b52	1.1953842e-11
184	0x2db9ba75	2.1114869e-11
185	0x2dd2a88c	2.3949086e-11
186	0x2dce278f	2.3437056e-11
187	0x2abb8b4f	3.3314538e-13
188	0x00000000	0.0
189	0x00000000	0.0
190	0x33910f39	6.754858e-08
191	0x3363e533	5.306101e-08
192	0xb24f8309	-1.207878e-08
193	0xb2ab4532	-1.9938486e-08
194	0x3396e657	7.026818e-08
195	0x337c9355	5.880732e-08
196	0x3394daec	6.931609e-08
197	0x3268704f	1.3529713e-08
198	0x33a8f725	7.868065e-08
199	0x33810d94	6.0095005e-08
200	0x33799d01	5.8117624e-08
201	0x32ddf000	2.5836925e-08
202	0x33303fbb	4.1036156e-08
203	0x2d49265b	1.1434044e-11
204	0x33a331c3	7.5993306e-08
205	0x33a331c3	7.5993306e-08
206	0x00000000	0.0
207	0x00000000	0.0
208	0x00000000	0.0
209	0x3c1c163e	0.009526787
210	0xbd2be55e	-0.04196679
211	0xbd17c8ad	-0.037056614
212	0xbcbf3a8a	-0.023343343
213	0xbce6a79f	-0.0281561
214	0xbcf5172a	-0.029918272
215	0xbce0274d	-0.02736249
216	0x3c205c85	0.009787683
217	0x3c14e5be	0.009087978
218	0xbb8fa5b5	-0.0043837675
219	0xbca77ce6	-0.020445298
220	0xbbb9192a	-0.0056487517
221	0xbc0a2997	-0.008432767
222	0xbcdae868	-0.026722148
223	0xbd382005	-0.04495241
224	0xbd0a021c	-0.033693418
225	0x375648d7	1.2772353e-05
226	0x38274441	3.987947e-05
227	0x3b32bac4	0.0027271966
228	0x00000000	0.0
229	0x00000000	0.0
230	0x00000000	0.0
231	0x00000000	0.0
232	0x00000000	0.0
233	0x00000000	0.0
234	0x00000000	0.0
235	0x00000000	0.0
236	0x00000000	0.0
237	0x00000000	0.0
238	0x00000000	0.0
239	0x00000000	0.0
240	0x00000000	0.0
241	0x00000000	0.0
242	0x00000000	0.0
243	0x00000000	0.0
244	0x00000000	0.0
245	0x00000000	0.0
246	0x00000000	0.0
247	0xbca1e270	-0.019761294
248	0x3d6e0581	0.058110718
249	0x3d308f42	0.04310537
250	0x3cc4545e	0.02396601
251	0x3ce36ff9	0.027763354
252	0x3cf7b28c	0.030236505
253	0x3cd07651	0.025447043
254	0xbcaccd6d	-0.021094048
255	0xbc82978c	-0.015941404

exp_avg_sq f4 [32, 19]
0	0x3984c56a	0.00025324087
1	0x398f769e	0.00027363462
2	0x399b211f	0.0002958858
3	0x39b51060	0.0003453521
4	0x3a0a95a0	0.0005286578
5	0x39fda011	0.0004837518
6	0x3a123f18	0.000557886
7	0x38dc3305	0.000104999206
8	0x38c5b5b3	9.427536e-05
9	0x3966d290	0.0002201295
10	0x39bcd42c	0.00036016235
11	0x38794dac	5.9438564e-05
12	0x391f0a14	0.00015167176
13	0x3a18ae11	0.0005824278
14	0x3a13c388	0.00056367414
15	0x3a1e7c9a	0.0006045789
16	0x36367cb5	2.7192702e-06
17	0x35162cc4	5.5944497e-07
18	0x35fa6006	1.8654398e-06
19	0x00000000	0.0
20	0x00000000	0.0
21	0x00000000	0.0
22	0x00000000	0.0
23	0x00000000	0.0
24	0x00000000	0.0
25	0x00000000	0.0
26	0x00000000	0.0
27	0x00000000	0.0
28	0x00000000	0.0
29	0x00000000	0.0
30	0x00000000	0.0
31	0x00000000	0.0
32	0x00000000	0.0
33	0x00000000	0.0
34	0x00000000	0.0
35	0x00000000	0.0
36	0x00000000	0.0
37	0x00000000	0.0
38	0x3a321042	0.0006792584
39	0x3a0cb940	0.00053681806
40	0x3a29805d	0.0006465966
41	0x3a599e07	0.0008301441
42	0x3a97502d	0.001154428
43	0x3a8ba15e	0.001065295
44	0x3aa1cc1a	0.0012344152
45	0x3992b139	0.0002797933
46	0x39817c04	0.00024697196
47	0x3a0b0a26	0.00053039414
48	0x3a51a3a7	0.00079971034
49	0x390ef2a5	0.00013632567
50	0x39b54774	0.00034576247
51	0x3ab163ba	0.0013533749
52	0x3aa2e676	0.0012428302
53	0x3aba1304	0.0014196341
54	0x37216ece	9.6221465e-06
55	0x35795a6f	9.2891327e-07
56	0x36be9b0b	5.6804906e-06
57	0x3a8d0a62	0.0010760541
58	0x3a46409a	0.0007562727
59	0x3a77b103	0.0009448679
60	0x3aa4d683	0.0012576137
61	0x3ae062fe	0.0017119346
62	0x3acf52d6	0.0015817534
63	0x3af10db4	0.0018390925
64	0x39e7e2be	0.0004422869
65	0x39ce89e4	0.00039394118
66	0x3a563e64	0.0008172749
67	0x3a9c8452	0.001194129
68	0x39589457	0.00020654626
69	0x3a08ddd9	0.0005221046
70	0x3b043c7e	0.0020177658
71	0x3af3342e	0.001855498
72	0x3b0de031	0.002164852
73	0x3788f0e5	1.6324639e-05
74	0x357b76bf	9.3677585e-07
75	0x371d6b2a	9.38288e-06
76	0x3563b6f9	8.483035e-07
77	0x3492f17e	2.7370328e-07
78	0x34ed40bf	4.41918e-07
79	0x35144437	5.523356e-07
80	0x3635038b	2.6973164e-06
81	0x3625d1ae	2.4708966e-06
82	0x36539206	3.1526447e-06
83	0x35850b97	9.912645e-07
84	0x3502d13a	4.873324e-07
85	0x3516e814	5.621707e-07
86	0x36085058	2.0312345e-06
87	0x34cd13b1	3.8198553e-07
88	0x356a66da	8.732146e-07
89	0x2ef24b41	1.1018254e-10
90	0x366696de	3.4360487e-06
91	0x366696de	3.4360487e-06
92	0x00000000	0.0
93	0x2ef24b41	1.1018254e-10
94	0x00000000	0.0
95	0x36002381	1.9094152e-06
96	0x36ce60d8	6.1505525e-06
97	0x3666c330	3.4386285e-06
98	0x371d8b1c	9.390318e-06
99	0x3769695d	1.3912414e-05
100	0x3748bfcd	1.1965586e-05
101	0x378294a8	1.5566431e-05
102	0x36088367	2.0342065e-06
103	0x3601139e	1.9233917e-06
104	0x35a020a5	1.193043e-06
105	0x371ecbfa	9.465026e-06
106	0x35bf5f47	1.4258338e-06
107	0x366efdc5	3.5612477e-06
108	0x370e6959	8.488388e-06
109	0x36c255a5	5.791621e-06
110	0x377c0296	1.5020973e-05
111	0x2f37b639	1.6708492e-10
112	0x33957379	6.9593575e-08
113	0x34a00d7c	2.9812134e-07
114	0x305fd281	8.142607e-10
115	0x3417dc25	1.4143059e-07
116	0x332d2d1f	4.032074e-08
117	0x33e88b69	1.08287004e-07
118	0x3441a11a	1.8033134e-07
119	0x341a1ddd	1.4353232e-07
120	0x3440ed4c	1.7967722e-07
121	0x30cba383	1.4816667e-09
122	0x329023fe	1.6780174e-08
123	0x32ea4d2e	2.7276283e-08
124	0x33f4bfe2	1.1397039e-07
125	0x320332a5	7.636719e-09
126	0x32c97549	2.3452815e-08
127	0x3479272f	2.3204187e-07
128	0x00000000	0.0
129	0x00000000	0.0
130	0x00000000	0.0
131	0x00000000	0.0
132	0x00000000	0.0
133	0x350a59b6	5.153955e-07
134	0x36beaeb3	5.682779e-06
135	0x364f30cc	3.0873807e-06
136	0x3705e50f	7.98075e-06
137	0x3736af0f	1.0888804e-05
138	0x371be3f3	9.2917935e-06
139	0x3746b41d	1.1843656e-05
140	0x35831299	9.765673e-07
141	0x353580d8	6.7615247e-07
142	0x3573f335	9.0878467e-07
143	0x36f109ac	7.1834856e-06
144	0x357dfeaa	9.462043e-07
145	0x361ee8a7	2.3679256e-06
146	0x36dd74f2	6.5999275e-06
147	0x35b2ef53	1.3331686e-06
148	0x3708f894	8.164108e-06
149	0x312dcee8	2.5292426e-09
150	0x2d1027f6	8.194325e-12
151	0x00000000	0.0
152	0x32168351	8.761007e-09
153	0x3159e52b	3.1707923e-09
154	0x3262b5fb	1.3196309e-08
155	0x32e95762	2.7164507e-08
156	0x32f810cd	2.887864e-08
157	0x32f2c3d3	2.8261558e-08
158	0x332205fb	3.7724003e-08
159	0x32b6b560	2.1270068e-08
160	0x318dc287	4.1257553e-09
161	0x308509ed	9.679845e-10
162	0x32c3e2ad	2.2804068e-08
163	0x31677591	3.3681753e-09
164	0x322a126f	9.899494e-09
165	0x3326d1c5	3.884067e-08
166	0x31c9fc44	5.878549e-09
167	0x3313c6ce	3.4406916e-08
168	0x00000000	0.0
169	0x2ce53b57	6.5151595e-12
170	0x3313f486	3.4448497e-08
171	0x3638e2e4	2.7550204e-06
172	0x3557ad73	8.0346143e-07
173	0x35c0f333	1.4375895e-06
174	0x36154f1f	2.2248785e-06
175	0x36e08b43	6.6919324e-06
176	0x36c9a6ac	6.00967e-06
177	0x37022a2d	7.758424e-06
178	0x360dedae	2.1148985e-06
179	0x35f46d22	1.8211178e-06
180	0x35d0b87b	1.5550899e-06
181	0x36a6a327	4.966179e-06
182	0x357930e6	9.2830885e-07
183	0x361150b6	2.1653664e-06
184	0x36fafb74	7.4798536e-06
185	0x371187c6	8.674286e-06
186	0x370d36d9	8.417025e-06
187	0x3104e013	1.93359e-09
188	0x00000000	0.0
189	0x00000000	0.0
190	0x3592ab06	1.0927622e-06
191	0x342988cb	1.5789117e-07
192	0x340d82fe	1.3179303e-07
193	0x3443decb	1.8241842e-07
194	0x35adf8f3	1.2961958e-06
195	0x358b6b14	1.0387471e-06
196	0x35c06065	1.4333169e-06
197	0x34c69958	3.6991946e-07
198	0x35a1c5fe	1.2053058e-06
199	0x35105d4f	5.377996e-07
200	0x357f0c86	9.5013127e-07
201	0x3411cb9b	1.3578249e-07
202	0x34d7621f	4.0118263e-07
203	0x353e102d	7.0804055e-07
204	0x35d956c3	1.6193011e-06
205	0x35d956c3	1.6193011e-06
206	0x00000000	0.0
207	0x00000000	0.0
208	0x00000000	0.0
209	0x397a9a0e	0.00023899248
210	0x397ecbe2	0.0002429928
211	0x39982b61	0.0002902402
212	0x399c20bd	0.0002977903
213	0x3a1d8e22	0.0006010254
214	0x3a1392b1	0.00056294637
215	0x3a293a83	0.00064555573
216	0x38cf398e	9.8812496e-05
217	0x38cc1cde	9.732855e-05
218	0x392112c2	0.00015361144
219	0x39d9882e	0.00041490927
220	0x38987a20	7.270672e-05
221	0x393c425f	0.00017953802
222	0x3a4d5809	0.00078332477
223	0x3a311057	0.0006754449
224	0x3a32b935	0.0006817759
225	0x36275d9d	2.493943e-06
226	0x2f65e9aa	2.0910443e-10
227	0x36262223	2.4755798e-06
228	0x00000000	0.0
229	0x00000000	0.0
230	0x00000000	0.0
231	0x00000000	0.0
232	0x00000000	0.0
233	0x00000000	0.0
234	0x00000000	0.0
235	0x00000000	0.0
236	0x00000000	0.0
237	0x00000000	0.0
238	0x00000000	0.0
239	0x00000000	0.0
240	0x00000000	0.0
241	0x00000000	0.0
242	0x00000000	0.0
243	0x00000000	0.0
244	0x00000000	0.0
245	0x00000000	0.0
246	0x00000000	0.0
247	0x3a2828f2	0.0006414793
248	0x3a1d4ca3	0.00060004945
249	0x3a2cec4a	0.0006596489
250	0x3a590b39	0.00082795654
251	0x3aa04efb	0.0012230569
252	0x3a9256dd	0.0011164803
253	0x3aa9ff34	0.0012969733
254	0x3987d956	0.00025911134
255	0x39777430	0.00023599039

exp_avg f4 [32]
0	0x3c9135bd	0.01772582
1	0x00000000	0.0
2	0x3caba37d	0.02095198
3	0x3cbf5eb2	0.023360584
4	0x2c7c754f	3.5876473e-12
5	0x310d1d0a	2.0534707e-09
6	0x2a4bd573	1.8104077e-13
7	0xbac66e7e	-0.001513913
8	0x3941c5f7	0.00018479662
9	0x2dce278f	2.3437056e-11
10	0x33a331c3	7.5993306e-08
11	0xbce424ca	-0.027849574
12	0x00000000	0.0
13	0x3cd32eaa	0.025779087
14	0xbcc585f9	-0.024111735
15	0xbcd0a9a9	-0.025471525
16	0x2be075ec	1.5948887e-12
17	0x3cf27dd3	0.029601013
18	0x00000000	0.0
19	0x3c97a5aa	0.018511612
20	0x3cd81728	0.02637823
21	0xbc94bc39	-0.018156158
22	0x00000000	0.0
23	0x3cb327d7	0.021869583
24	0x3c70ff44	0.014709298
25	0x2c5eb5f6	3.1649106e-12
26	0xbd058f06	-0.0326071
27	0x3c81b737	0.015834434
28	0x3c9cfd1c	0.01916366
29	0x3cdb7c58	0.02679269
30	0x3c942c85	0.018087635
31	0x34d386bd	3.9399848e-07

exp_avg_sq f4 [32]
0	0x3a1fe262	0.00060991023
1	0x00000000	0.0
2	0x3ab14112	0.0013523421
3	0x3b0444de	0.002018265
4	0x366696de	3.4360487e-06
5	0x3788feb3	1.6331067e-05
6	0x3451fe2d	1.955711e-07
7	0x3750db77	1.2448864e-05
8	0x3326d1c5	3.884067e-08
9	0x370d36d8	8.417024e-06
10	0x35d956c3	1.6193011e-06
11	0x3a385057	0.00070310145
12	0x00000000	0.0
13	0x3aba3e77	0.001420929
14	0x3ab62a74	0.001389815
15	0x3aee1863	0.0018165227
16	0x3678e94e	3.709068e-06
17	0x3b07007d	0.0020599656
18	0x00000000	0.0
19	0x3af321a7	0.0018549458
20	0x3b38524a	0.002812522
21	0x3b1a1b00	0.0023514628
22	0x00000000	0.0
23	0x3a44d833	0.0007509023
24	0x3a049273	0.0005057223
25	0x364e0b9a	3.0703145e-06
26	0x3b31055b	0.0027011249
27	0x3a48813d	0.00076486525
28	0x3a348c38	0.00068873493
29	0x3b07da2e	0.002072941
30	0x3a99b501	0.0011726917
31	0x33782bbd	5.778178e-08

exp_avg f4 [3, 32]
0	0xbc86baa6	-0.016446423
1	0x00000000	0.0
2	0xbd0c5911	-0.034264628
3	0xbd3cd5df	-0.0461024
4	0xabf8c0e6	-1.7675e-12
5	0x2fe45dbe	4.1539566e-10
6	0xa98cb707	-6.248999e-14
7	0xba1a256c	-0.000588021
8	0xb8af3475	-8.354421e-05
9	0xad052adf	-7.569694e-12
10	0xb18f2b64	-4.1667807e-09
11	0x3dcc8eee	0.09988199
12	0x00000000	0.0
13	0xbd4356d6	-0.047690235
14	0x3de09dd5	0.10967604
15	0x3dea12c1	0.11429358
16	0xac0de278	-2.016302e-12
17	0xbd3dc60c	-0.04633145
18	0x00000000	0.0
19	0xbbf14c6d	-0.007363847
20	0xbd15f64f	-0.03661185
21	0x3d8679b7	0.06566184
22	0x00000000	0.0
23	0xbc9c6980	-0.019093275
24	0xbd03e919	-0.03220472
25	0xab48d4de	-7.1349686e-13
26	0x3db0be5c	0.08630058
27	0xbc7780ae	-0.015106363
28	0x3b8d30ce	0.0043087965
29	0xbd03b673	-0.03215642
30	0xbccac66d	-0.02475282
31	0x328023bc	1.4917411e-08
32	0xbd5aca29	-0.05341545
33	0x00000000	0.0
34	0xbd0749fd	-0.033029545
35	0xbcd1c24a	-0.02560534
36	0x2baa48da	1.2099447e-12
37	0x2dd5ad82	2.429235e-11
38	0x28eeb859	2.6503256e-14
39	0x38b9a0c5	8.851433e-05
40	0x33c29b93	9.062128e-08
41	0x2cb2edc3	5.085461e-12
42	0x318f6b0f	4.174019e-09
43	0xbd39be54	-0.045347527
44	0x00000000	0.0
45	0xbc80728b	-0.015679618
46	0xbd57159e	-0.05251085
47	0xbd5fba0b	-0.054620784
48	0x2b70b72d	8.5519336e-13
49	0xbd1570d3	-0.03648455
50	0x00000000	0.0
51	0xbcf347f2	-0.029697392
52	0xbcd53bfb	-0.026029577
53	0xbd187b09	-0.03722671
54	0x00000000	0.0
55	0xbd411403	-0.047138225
56	0xbd02f232	-0.031969257
57	0x2ada3ffb	3.8768974e-13
58	0xbd3ab3d0	-0.04558164
59	0xbd0596cb	-0.03261451
60	0xbd864d39	-0.06557698
61	0xbd0e2ba4	-0.034709588
62	0xbca86c92	-0.020559583
63	0x2ebae43f	8.4988454e-11
64	0x3d8f13c0	0.06986189
65	0x00000000	0.0
66	0x3d89d187	0.06729417
67	0x3d92db82	0.07170774
68	0x2b1cf007	5.575544e-13
69	0xaff1b895	-4.3968798e-10
70	0x292211de	3.5986723e-14
71	0x3a02f156	0.00049950683
72	0x38af03ce	8.345359e-05
73	0x2c2ecff4	2.4842324e-12
74	0xacfea1eb	-7.2370907e-12
75	0xbd5f5f89	-0.05453447
76	0x00000000	0.0
77	0x3d81c80e	0.063369855
78	0xbd6a260e	-0.057165198
79	0xbd746b72	-0.05967278
80	0x2ba36954	1.1611081e-12
81	0x3da99b6e	0.08281599
82	0x00000000	0.0
83	0x3d17cd85	0.037061233
84	0x3d804a25	0.06264142
85	0xbce8f0c9	-0.028435128
86	0x00000000	0.0
87	0x3d87a460	0.06623149
88	0x3d836da4	0.06417397
89	0x2ab769bf	3.2580706e-13
90	0xbd26c8e7	-0.04071894
91	0x3d4376f7	0.047720876
92	0x3d7af456	0.061268173
93	0x3d88f10a	0.066865996
94	0x3d39997e	0.045312397
95	0xb280dea1	-1.5002401e-08

exp_avg_sq f4 [3, 32]
0	0x3cc54728	0.024081782
1	0x00000000	0.0
2	0x3c80fc4f	0.01574531
3	0x3c8df81f	0.017330227
4	0x35ab9846	1.278481e-06
5	0x380ae1b1	3.3111955e-05
6	0x3300511c	2.987609e-08
7	0x376891e7	1.3862248e-05
8	0x327547c0	1.4277191e-08
9	0x360140a7	1.926013e-06
10	0x3474591b	2.2756687e-07
11	0x3b0bec75	0.0021350656
12	0x00000000	0.0
13	0x3c406a16	0.011744043
14	0x3b6f5fbb	0.0036525566
15	0x3b964b16	0.0045865877
16	0x36d31561	6.290779e-06
17	0x3cdc904e	0.026924279
18	0x00000000	0.0
19	0x3c1447cd	0.009050322
20	0x3c2db699	0.010602617
21	0x3b562f26	0.0032681911
22	0x00000000	0.0
23	0x3caca4b6	0.021074634
24	0x3c31689f	0.010828166
25	0x349aa1a9	2.8802359e-07
26	0x3b5b2c69	0.0033443219
27	0x3c1b8d02	0.009494068
28	0x3cfba743	0.030719405
29	0x3c903c25	0.017606804
30	0x3bc480a4	0.0059967805
31	0x2e999dab	6.985642e-11
32	0x3bf83446	0.007574591
33	0x00000000	0.0
34	0x3ba5d708	0.005061034
35	0x3ba6f2d4	0.0050948653
36	0x358cf5c7	1.0502343e-06
37	0x38096920	3.276125e-05
38	0x31b74bd7	5.334623e-09
39	0x36b0e776	5.2721543e-06
40	0x30b6768e	1.3275938e-09
41	0x35fd9f24	1.8896285e-06
42	0x34d6fdb0	4.0045188e-07
43	0x3a2ec9ef	0.00066676637
44	0x00000000	0.0
45	0x3b5c3e13	0.0033606335
46	0x3a97891a	0.0011561245
47	0x3ac5bccb	0.0015086172
48	0x358f72d0	1.0687745e-06
49	0x3be91e56	0.007114212
50	0x00000000	0.0
51	0x3b35eb36	0.0027758605
52	0x3b380ad6	0.002808263
53	0x3a97d837	0.0011584823
54	0x00000000	0.0
55	0x3bd4549a	0.006479812
56	0x3b4befdd	0.0031118311
57	0x340fb630	1.3384192e-07
58	0x3a8b9971	0.0010650588
59	0x3b416669	0.0029510504
60	0x3c3e6727	0.011621273
61	0x3ba6c596	0.005089472
62	0x3b00bc09	0.0019643328
63	0x2d7b1eb7	1.4274518e-11
64	0x3cbf6e23	0.023367947
65	0x00000000	0.0
66	0x3c6fe0fc	0.014641043
67	0x3c7792be	0.01511067
68	0x35091455	5.1066064e-07
69	0x380296e0	3.113493e-05
70	0x322b26c7	9.962327e-09
71	0x376971d2	1.3914383e-05
72	0x328be610	1.628635e-08
73	0x358941c5	1.0226437e-06
74	0x3449da91	1.8799098e-07
75	0x3af3bb6f	0.0018595288
76	0x00000000	0.0
77	0x3c124398	0.008927248
78	0x3b4604f1	0.0030215348
79	0x3b6cd658	0.00361385
80	0x36140130	2.205441e-06
81	0x3cbbc97b	0.022923222
82	0x00000000	0.0
83	0x3c0a92bb	0.008457835
84	0x3c235cb6	0.0099708345
85	0x3b36b1dc	0.0027877009
86	0x00000000	0.0
87	0x3caeb6d6	0.021327417
88	0x3c30e923	0.010797772
89	0x33ab2102	7.968812e-08
90	0x3b329e66	0.0027255057
91	0x3c1b19db	0.009466614
92	0x3d0697e5	0.0328597
93	0x3c8169a2	0.01579744
94	0x3bbcd61e	0.0057628294
95	0x2e96b35d	6.8530716e-11

exp_avg f4 [3]
0	0x3cc22242	0.023697976
1	0xbd0d7dd2	-0.03454382
2	0x3c31b2bd	0.010845837

exp_avg_sq f4 [3]
0	0x3baca360	0.0052684993
1	0x3b4c3a56	0.00311627
2	0x3bd89790	0.0066098645
