models/rl_agents/reliability.pth (torch, 14454 bytes, 12 tensors)

fc1.weight f4 [32, 19]
0.15106867 0.16151063 -0.22192301 -0.18990895 0.05596377 -0.0016980618 0.12862115 0.21604268
0.10686548 -0.08548352 -0.20407492 -0.12495573 -0.042767093 -0.09090483 -0.2283912 -0.13130681
0.15229852 0.18629114 0.019569695 0.009386264 0.19717054 0.091694154 -0.2703249 0.11745364
-0.069400676 0.14837463 -0.21047722 -0.24751028 -0.07174961 -0.0013296045 0.099789076 0.010906987
-0.14153992 -0.21450387 -0.0464575 -0.06473479 0.2394713 0.03362607 -0.10296167 0.13265984
-0.13491918 -0.0039993417 -0.16567524 0.1107006 -0.060366157 -0.19007926 -0.2648523 0.11090936
-0.18903771 -0.18119057 -0.08585478 0.045789197 -0.1537455 -0.22751859 0.01983583 0.124816276
-0.22347102 -0.06423229 0.07147546 -0.060598478 0.04861732 -0.031197265 -0.048941836 -0.01425159
-0.14297774 0.14666297 0.13083689 -0.19770844 0.05131392 0.22886492 -0.15564421 -0.05649872
-0.12535444 -0.1609439 0.002033025 -0.040517434 -0.21020734 0.1108789 -0.20563541 0.18542217
0.07234847 -0.21202442 0.07809282 -0.06115611 0.10084069 -0.17032869 -0.13885301 0.118432164
-0.1705361 -0.09036902 -0.14250049 -0.17390975 0.13346805 -0.13622624 0.006759882 -0.2621147
0.15185301 -0.060306855 -0.10297873 -0.24033232 -0.017597437 -0.07216995 0.08517946 -0.05720335
0.057020154 0.12294307 0.13380976 0.15725864 0.08023895 -0.17567475 -0.19644019 -0.06020665
-0.1812738 0.19505334 -0.16522464 0.28546605 0.08963038 -0.3697151 -0.017931195 -0.09339652
-0.031869363 -0.021727199 0.15985343 0.18870975 0.017805548 0.006626619 0.094022445 -0.2870825
0.21452233 -0.14150144 -0.2352376 -0.09320595 0.038915962 0.05482586 -0.09157748 -0.043511335
0.1369106 -0.09038254 0.02210642 0.05325471 -0.0027224487 0.09591213 0.10672206 0.004337102
-0.06823804 0.17128097 0.12206853 -0.15721336 -0.006150797 -0.18533188 0.112668484 0.0095959585
0.03169045 -0.06619565 0.27823102 -0.052746158 0.08078975 -0.13909534 0.13187864 -0.16515183
0.009012311 -0.11294063 0.07415688 -0.23312256 -0.18443629 -0.0654023 0.071425185 -0.28888473
-0.24973361 -0.0777099 0.16945311 -0.16521828 -0.078157544 0.006534025 0.034100994 -0.14079711
0.08196075 0.06092517 0.1300674 0.0918224 -0.18130961 -0.0012592375 -0.029410094 -0.17020598
-0.13636291 0.10540368 -0.06946817 0.055227026 -0.2171239 0.19218825 0.011589795 0.056626607
0.18504174 0.121163785 0.17707235 -0.2170993 -0.019279102 -0.13197333 0.18253902 -0.20621185
-0.2549842 0.006561951 -0.09526546 -0.05985717 0.109088436 0.007132381 -0.21943824 -0.085767806
0.20033942 0.10672204 0.028575823 -0.20628934 0.08240239 -0.14157006 -0.22780961 -0.1384897
0.22579126 -0.16279006 -0.2118164 -0.10841112 -0.026126504 -0.115987554 -0.21259351 -0.18729696
0.16708924 0.14794813 -0.031955883 -0.080838054 -0.026997803 0.2869952 -0.0061439844 0.023258558
0.12748955 -0.16429575 -0.22090864 -0.073240064 -0.17426942 0.06007201 -0.15104325 0.09765887
0.10623968 -0.056084972 0.07707609 -0.17108616 0.015388274 0.15843977 0.021766525 -0.14462109
-0.060783982 0.09950505 -0.14612499 -0.19312558 -0.11909117 -0.14984193 -0.08092013 0.16628693
00000000: bfb1 1a3e 0b63 253e c93f 63be 7e77 42be
00000010: 443a 653d 8091 deba 43b5 033e 4b3a 5d3e
00000020: 4adc da3d fc11 afbd 04f9 50be cae8 ffbd
00000030: 8c2c 2fbd 502c babd 62df 69be 4b75 06be
00000040: 25f4 1b3e 1bc3 3e3e a050 a03c d8c8 193c
00000050: 13e7 493e 25ca bb3d 0668 8abe 898b f03d
00000060: f121 8ebd 85ef 173e 5787 57be 5673 7dbe
00000070: 76f1 92bd 2046 aeba 375e cc3d 38b3 323c
00000080: d7ef 10be e7a6 5bbe 384a 3ebd ac93 84bd
00000090: f737 753e 7dbb 093d 91dd d2bd fbd7 073e
000000a0: 4128 0abe e90c 83bb c5a6 29be ffb6 e23d
000000b0: 8142 77bd 23a4 42be b89a 87be 7224 e33d
000000c0: 1a93 41be 058a 39be a2d4 afbd 748d 3b3d
000000d0: 766f 1dbe a2fa 68be c07e a23c ad9f ff3d
000000e0: 96d5 64be 388c 83bd ba61 923d 1c36 78bd
000000f0: f422 473d 6891 ffbc 3c77 48bd 807f 69bc
00000100: c268 12be d12e 163e 1bfa 053e 1574 4abe
00000110: 8c2e 523d 915b 6a3e 3261 1fbe 346b 67bd
00000120: ea5c 00be 7ace 24be 803c 053b 9cf5 25bd
00000130: 9840 57be 7a14 e33d 1792 52be 4fdf 3d3e
00000140: 6f2b 943d ee1c 59be 21ef 9f3d d47e 7abd
00000150: 9085 ce3d a56a 2ebe 7c2f 0ebe 908c f23d
00000160: 04a1 2ebe 6513 b9bd a6eb 11be 6615 32be
00000170: d9ab 083e e47e 0bbe 0082 dd3b e633 86be
00000180: 5b7f 1b3e 5204 77bd 83e6 d2bd ad19 76be
00000190: 8028 90bc d7cd 93bd 9272 ae3d 0f4e 6abd
000001a0: f78d 693d 94c9 fb3d 6d05 093e 6908 213e
000001b0: 5254 a43d 15e4 33be 9e27 49be 409b 76bd
000001c0: d79f 39be 10bc 473e a630 29be 9b28 923e
000001d0: 2290 b73d 4c4b bdbe 71e4 92bc ad46 bfbd
000001e0: 7389 02bd 3dfd b1bc 9eb0 233e 213d 413e
000001f0: f1dc 913c 1c24 d93b d78e c03d 7afc 92be
00000200: beab 5b3e c1e5 10be 20e2 70be c3e2 bebd
00000210: 5866 1f3d 1591 603d f98c bbbd f138 32bd
00000220: 4b32 0c3e 7b1a b9bd 8618 b53c 9c21 5a3d
00000230: 1c6b 32bb 946d c43d 1891 da3d 401e 8e3b
00000240: 63c0 8bbd 4764 2f3e 11ff f93d 8afc 20be
00000250: a08c c9bb a4c7 3dbe bcbe e63d 5e38 1d3c
00000260: d8cd 013d 9691 87bd 4c74 8e3e 5b0c 58bd
00000270: 1975 a53d 026f 0ebe 320b 073e 901d 29be
00000280: 5fa8 133c 6b4d e7bd 90df 973d aeb7 6ebe
00000290: dedc 3cbe a4f1 85bd 5e47 923d b3e8 93be
000002a0: 2bba 7fbe 5e26 9fbd 1e85 2d3e fb2e 29be
000002b0: 1011 a0bd 601b d63b 7cad 0b3d 1e2d 10be
000002c0: 0adb a73d ac8c 793d 6330 053e 620d bc3d
000002d0: 3aa9 39be 000d a5ba 70ed f0bc 7a4a 2ebe
000002e0: b8a2 0bbe e2dd d73d 5445 8ebd bc35 623d
000002f0: ba55 5ebe ffcc 443e 20e3 3d3c 4df1 673d
00000300: 957b 3d3e b824 f83d 7452 353e 474f 5ebe
00000310: 35ef 9dbc 0424 07be 82eb 3a3e 3329 53be
00000320: 4a8d 82be a205 d73b 8a1a c3bd cb2c 75bd
00000330: c269 df3d c0b6 e93b 6bb4 60be 08a7 afbd
00000340: c725 4d3e 1691 da3d d817 ea3c 833d 53be
00000350: 96c2 a83d bef7 10be ec46 69be 3ed0 0dbe
00000360: d335 673e 70b2 26be 66e6 58be a606 debd
00000370: 4007 d6bc e28a edbd 1db2 59be c6ca 3fbe
00000380: 7119 2b3e b77f 173e 2ce4 02bd 6c8e a5bd
00000390: 7f2a ddbc 09f1 923e 7a53 c9bb bb88 be3c
000003a0: 9f8c 023e 253d 28be e035 62be e3fe 95bd
000003b0: af73 32be 110e 763d 15ab 1abe 6001 c83d
000003c0: 3094 d93d 5bb9 65bd 12da 9d3d 3631 2fbe
000003d0: 191f 7c3c 093e 223e b64f b23c 8d17 14be
000003e0: a0f8 78bd 4ec9 cb3d caa1 15be b6c2 45be
000003f0: 12e6 f3bd 2a70 19be 74b9 a5bd 1f47 2a3e

fc1.bias f4 [32]
-0.19796248 -0.00798421 -0.19619447 -0.09878117 -0.023590652 -0.12839735 -0.23482305 0.21744625
0.09641279 -0.18754528 -0.20460843 0.1303472 0.039739758 0.14076875 0.22155179 0.14195949
-0.12932205 -0.19560328 -0.0005204957 0.15163761 0.10700126 0.06805111 -0.11382034 -0.19002044
-0.011224709 -0.0013738599 -0.22324127 -0.20337042 0.08544564 -0.02601693 0.22414275 -0.14547324
00000000: adb6 4abe 34d0 02bc 34e7 48be c84d cabd
00000010: 2f41 c1bc 987a 03be 7475 70be 3baa 5e3e
00000020: 1274 c53d df0b 40be df84 51be bd79 053e
00000030: 28c6 223d af25 103e 79de 623e d45d 113e
00000040: 006d 04be 3a4c 48be e071 08ba e446 1b3e
00000050: 7a23 db3d 615e 8b3d a31a e9bd b894 42be
00000060: d8e7 37bc 1713 b4ba 5c99 64be 5640 50be
00000070: 20fe ae3d 7521 d5bc ad85 653e f0f6 14be

fc2.weight f4 [3, 32]
0.013685718 -0.19186522 -0.16533637 0.015670761 -0.00021704946 0.102562666 0.053766344 0.084513955
-0.04262942 0.043444976 0.14687327 0.05682212 -0.09028965 -0.08105349 0.11458431 0.043705624
0.13916202 0.15071414 -0.025020214 0.11538788 -0.00020690408 0.021683564 0.047009934 0.080011606
0.043021306 -0.015594984 -0.17231151 -0.062194556 0.021873923 -0.15393339 0.025685864 -0.07279808
-0.16030893 0.14248155 -0.099416755 -0.16136052 0.11456472 0.17620291 -0.036716986 -0.1055275
-0.04425533 0.13287796 0.096550405 0.109602824 0.105362065 0.07211129 -0.034661815 -0.14769
-0.15258278 0.032226756 -0.06810813 0.06568071 0.18356536 0.055152737 0.032003265 -0.033046946
-0.16965082 -0.034970887 -0.03460674 0.10171809 0.10186587 -0.039445158 -0.13440733 0.039843738
-0.13255443 -0.040289033 -0.19141258 0.08606826 -0.09171566 0.062258556 -0.19556668 0.13229267
-0.029475244 -0.057634927 0.018841997 -0.09841262 0.119682506 -0.17075825 0.13612016 0.08254812
-0.08463827 -0.06209515 0.1260556 -0.11111782 0.17862266 0.016321523 0.07399564 -0.0018533935
-0.100754134 -0.029253464 0.03340994 0.19373785 -0.18167336 -0.025861248 0.15930821 -0.085135005
00000000: 103a 603c 5178 44be f04d 29be f85f 803c
00000010: c597 63b9 600c d23d 193a 5c3d a715 ad3d
00000020: 309c 2ebd 5cf3 313d f265 163e 50be 683d
00000030: c8e9 b8bd 5fff a5bd 2eab ea3d ab04 333d
00000040: 7d80 0e3e cf54 1a3e 31f7 ccbc 7b50 ec3d
00000050: 64f4 58b9 bba1 b13c 7d8d 403d 20dd a33d
00000060: 1c37 303d 1b82 7fbc 6e72 30be b8bf 7ebd
00000070: f130 b33c b7a0 1dbe 296b d23c 2917 95bd
00000080: 0628 24be afe6 113e 039b cbbd b13b 25be
00000090: e8a0 ea3d 896e 343e 8d64 16bd cd1e d8bd
000000a0: 1445 35bd 2911 083e 38bc c53d 7277 e03d
000000b0: 11c8 d73d 16af 933d 8cf9 0dbd 0c3c 17be
000000c0: a93e 1cbe 3400 043d 467c 8bbd 9c83 863d
000000d0: 8ff8 3b3e d6e7 613d db15 033d 3c5c 07bd
000000e0: f2b8 2dbe a23d 0fbd ccbf 0dbd 9351 d03d
000000f0: 0e9f d03d 3f91 21bd 13a2 09be 3033 233d
00000100: 59bc 07be 1d06 25bd a901 44be 8e44 b03d
00000110: 6cd5 bbbd d402 7f3d a242 48be bb77 073e
00000120: 1176 f1bc 9a12 6cbd 885a 9a3c 8e8c c9bd
00000130: 1a1c f53d 40db 2ebe 1563 0b3e fd0e a93d
00000140: d456 adbd 7c57 7ebd b814 013e bd91 e3bd
00000150: dce8 363e b7b4 853c 078b 973d 91ed f2ba
00000160: 2f58 cebd f6a4 efbc dcd8 083d 3763 463e
00000170: 9508 3abe f8da d3bc b121 233e 435b aebd

fc2.bias f4 [3]
-0.12017688 -0.07042865 0.019175356
00000000: 4c1f f6bd e53c 90bd a315 9d3c

exp_avg f4 [32, 19]
0.0 0.0 0.0 0.0 0.0 0.0 0.0 0.0
0.0 0.0 0.0 0.0 0.0 0.0 0.0 0.0
0.0 0.0 0.0 -2.9855413e-05 -0.0007290147 -0.00064940285 -0.0011194078 -0.001091036
-0.0010161363 -0.0011874408 -0.00032650534 -0.0003925205 -4.3392178e-05 -0.0009105847 -0.00024656297 -0.0004301209
-0.0012916205 0.0001593051 0.00022041822 -2.36802e-06 -0.0014163333 4.915224e-06 1.4432096e-07 1.8947621e-07
1.10506456e-07 -1.4866495e-07 1.8947621e-07 1.6716132e-07 1.5612487e-07 0.0 1.1357676e-08 3.0016193e-07
1.4565117e-07 4.9316544e-08 8.342226e-08 0.0 1.8859731e-07 1.8947621e-07 0.0 1.8859731e-07
0.0 0.0 0.0 0.0 0.0 0.0 0.0 0.0
0.0 0.0 0.0 0.0 0.0 0.0 0.0 0.0
0.0 0.0 0.0 0.0 5.217277e-16 9.391096e-15 3.63948e-15 6.987993e-15
9.391096e-15 7.994402e-15 9.001417e-15 0.0 3.1791901e-15 3.5071685e-15 7.162266e-15 2.0660413e-15
3.5686167e-15 9.391096e-15 0.0 0.0 0.0 0.0 0.0 1.2025204e-10
-1.1963064e-11 2.7846312e-11 1.5209142e-10 1.7417465e-10 1.7693282e-10 1.9540025e-10 1.7203867e-10 4.4854006e-11
8.33037e-11 1.580022e-10 1.0224574e-10 1.268205e-10 2.046561e-10 3.3579984e-14 0.0 0.0
0.0 2.0433073e-10 0.0019686008 0.00032019475 0.00043818823 0.00091332226 0.0022593702 0.0021346027
0.00239282 0.001366895 0.0013231718 0.0013610183 0.0019451047 0.0008349683 0.0013850656 0.002812837
0.0026160474 0.002715574 8.2496714e-05 -3.3918632e-06 -0.00010132693 0.0049519194 -0.0037055244 0.004938123
0.0028419555 0.005847857 0.0056478893 0.0065696198 0.0059871417 0.0041497233 0.0034877395 0.005323156
0.0016558613 0.003392735 0.0070425943 0.0019893907 -0.000916181 6.4853346e-05 0.0016939553 0.00014923474
-2.0160172e-05 -4.7348087e-05 -0.00013027841 -0.00021189824 -0.0001777816 -0.00016845838 -0.00019875202 -8.244656e-05
-5.8282458e-05 1.7616147e-05 -0.00014667511 -5.1140898e-05 -8.3292376e-05 -0.00021665673 4.672662e-05 2.0185164e-05
1.4093742e-07 1.58811e-06 1.7275162e-06 0.0 0.0 0.0 0.0 0.0
0.0 0.0 0.0 0.0 0.0 0.0 0.0 0.0
0.0 0.0 0.0 0.0 0.0 0.0 0.0 3.7998484e-14
1.890582e-14 2.8274963e-14 3.7998484e-14 3.2704084e-14 3.6421732e-14 0.0 9.651156e-15 1.4190788e-14
2.9218344e-14 1.06395715e-14 1.8239276e-14 3.7998484e-14 3.7998484e-14 0.0 0.0 0.0
0.0 0.0 0.0 0.0 0.0 0.0 0.0 0.0
0.0 0.0 0.0 0.0 0.0 0.0 0.0 0.0
0.0 0.0 0.0 0.0 6.881809e-05 8.404254e-05 3.396106e-05 2.946379e-05
0.00013158844 0.000117081145 0.00013322096 2.760936e-05 8.272039e-05 7.916739e-05 0.00010751076 4.1057334e-05
7.0254086e-05 4.113557e-05 0.00012247862 0.00014199717 -1.5853608e-06 1.1045723e-06 -2.0873891e-08 0.0
0.0 0.0 0.0 0.0 0.0 0.0 0.0 0.0
00000000: 0000 0000 0000 0000 0000 0000 0000 0000
00000010: 0000 0000 0000 0000 0000 0000 0000 0000
00000020: 0000 0000 0000 0000 0000 0000 0000 0000
00000030: 0000 0000 0000 0000 0000 0000 0000 0000
00000040: 0000 0000 0000 0000 0000 0000 0372 fab7
00000050: 591b 3fba b03c 2aba 18b9 92ba 1801 8fba
00000060: e02f 85ba e7a3 9bba ce2e abb9 36cb cdb9
00000070: ffff 35b8 4eb4 6eba 1f45 81b9 da81 e1b9
00000080: 984b a9ba 230b 2739 1120 6739 46ea 1eb6
00000090: 42a4 b9ba 74ed a436 a5f6 1a34 d372 4b34
000000a0: 914f ed33 b6a0 1fb4 d372 4b34 f47c 3334
000000b0: 47a3 2734 0000 0000 961f 4332 f125 a134
000000c0: 4a64 1c34 1dd0 5333 df25 b333 0000 0000
000000d0: 3c81 4a34 d372 4b34 0000 0000 3c81 4a34
000000e0: 0000 0000 0000 0000 0000 0000 0000 0000
000000f0: 0000 0000 0000 0000 0000 0000 0000 0000
00000100: 0000 0000 0000 0000 0000 0000 0000 0000
00000110: 0000 0000 0000 0000 0000 0000 0000 0000
00000120: 0000 0000 0000 0000 0000 0000 0000 0000
00000130: b660 1626 c92c 2928 4720 8327 dcc4 fb27
00000140: c92c 2928 ac03 1028 b527 2228 0000 0000
00000150: b515 6527 d7b7 7c27 1f06 0128 bcdf 1427
00000160: ae92 8027 c92c 2928 0000 0000 0000 0000
00000170: 0000 0000 0000 0000 0000 0000 f137 042f
00000180: da74 52ad 52f0 f42d ee39 272f ce81 3f2f
00000190: 298a 422f 48d8 562f 9528 3d2f 1f45 452e
000001a0: d02f b72e aab9 2d2f 3cd7 e02e cc70 0b2f
000001b0: 9205 612f 163b 1729 0000 0000 0000 0000
000001c0: 0000 0000 fda9 602f a403 013b d0df a739
000001d0: a1bc e539 056c 6f3a f111 143b b1e4 0b3b
000001e0: dcd0 1c3b 6329 b33a 476e ad3a 3264 b23a
000001f0: e2f2 fe3a c6e1 5a3a 178b b53a 9357 383b
00000200: fe71 2b3b c6f7 313b 1602 ad38 c49f 63b6
00000210: 7b7f d4b8 b643 a23b 62d8 72bb facf a13b
00000220: 1a40 3a3b 619f bf3b ee11 b93b f745 d73b
00000230: c92f c43b 67fa 873b 8f92 643b de6d ae3b
00000240: 7c09 d93a a658 5e3b 90c5 e63b 7060 023b
00000250: de2b 70ba e001 8838 b507 de3a e57b 1c39
00000260: a41d a9b7 9f97 46b8 589b 08b9 0031 5eb9
00000270: e36a 3ab9 34a4 30b9 1768 50b9 29e7 acb8
00000280: 5074 74b8 63c6 9337 cdcc 19b9 1f80 56b8
00000290: 41ad aeb8 592e 63b9 54fc 4338 4f53 a937
000002a0: 9554 1734 0b27 d535 01dd e735 0000 0000
000002b0: 0000 0000 0000 0000 0000 0000 0000 0000
000002c0: 0000 0000 0000 0000 0000 0000 0000 0000
000002d0: 0000 0000 0000 0000 0000 0000 0000 0000
000002e0: 0000 0000 0000 0000 0000 0000 0000 0000
000002f0: 0000 0000 0000 0000 0000 0000 4521 2b29
00000300: da49 aa28 a0ad fe28 4521 2b29 3e49 1329
00000310: 6607 2429 0000 0000 1adc 2d28 75a3 7f28
00000320: 7596 0329 5daa 3f28 e848 a428 4521 2b29
00000330: 4521 2b29 0000 0000 0000 0000 0000 0000
00000340: 0000 0000 0000 0000 0000 0000 0000 0000
00000350: 0000 0000 0000 0000 0000 0000 0000 0000
00000360: 0000 0000 0000 0000 0000 0000 0000 0000
00000370: 0000 0000 0000 0000 0000 0000 0000 0000
00000380: 0000 0000 0000 0000 0000 0000 0000 0000
00000390: 6e52 9038 ff3f b038 6971 0e38 0229 f737
000003a0: 01fb 0939 7689 f538 3bb1 0b39 a69a e737
000003b0: 2c7a ad38 ab06 a638 6677 e138 fa34 2c38
000003c0: 6055 9338 fb88 2c38 9b6d 0039 13e5 1439
000003d0: 95c8 d4b5 d140 9435 2c4e b3b2 0000 0000
000003e0: 0000 0000 0000 0000 0000 0000 0000 0000
000003f0: 0000 0000 0000 0000 0000 0000 0000 0000

exp_avg_sq f4 [32, 19]
0.0 0.0 0.0 0.0 0.0 0.0 0.0 0.0
0.0 0.0 0.0 0.0 0.0 0.0 0.0 0.0
0.0 0.0 0.0 0.00021633008 0.00010133557 3.0461588e-05 6.800663e-05 0.0002446869
0.0002194535 0.00027817787 0.00022442508 0.00010638003 0.00014615472 0.0001827036 3.1804888e-05 9.2424314e-05
0.00025519647 0.00026030908 0.000259479 6.8930085e-06 1.975261e-06 1.2662164e-06 1.8836865e-09 3.247484e-09
1.1046213e-09 1.9983293e-09 3.247484e-09 2.5276063e-09 2.2049778e-09 0.0 1.1668536e-11 8.147884e-09
1.919004e-09 2.2016541e-10 6.29788e-10 0.0 3.2070258e-09 3.247484e-09 0.0 3.2070258e-09
0.0 0.0 0.0 0.0 0.0 0.0 0.0 0.0
0.0 0.0 0.0 0.0 0.0 0.0 0.0 0.0
0.0 0.0 0.0 0.0 1.9016926e-12 6.1614813e-10 9.254029e-11 3.4115916e-10
6.1614813e-10 4.4650275e-10 5.6607447e-10 0.0 7.06131e-11 8.593409e-11 3.5838751e-10 2.9821593e-11
8.897184e-11 6.1614813e-10 0.0 0.0 0.0 0.0 0.0 1.2893582e-08
7.1940576e-08 6.8437984e-08 1.7715388e-07 2.7925827e-07 2.3527899e-07 2.9394252e-07 1.0149993e-08 2.591187e-08
4.464077e-08 1.7995681e-07 1.9869187e-08 5.6809426e-08 3.1994912e-07 4.2049555e-09 0.0 0.0
0.0 6.6614086e-10 9.9389676e-05 1.7175631e-05 6.425623e-06 2.4170073e-05 0.00012230572 0.00010535512
0.00012892694 3.6482677e-05 4.6840592e-05 8.828281e-05 8.843603e-05 1.6954169e-05 4.571663e-05 0.00014973765
0.0001627612 0.00015154945 6.231755e-07 2.2817127e-07 1.1719628e-06 0.000273963 0.00012567196 7.797479e-05
9.378883e-05 0.00040448032 0.0003519578 0.00041447266 0.00014239065 0.00010916939 0.00033978533 0.00028563122
4.6682555e-05 0.00013225409 0.0003440399 0.00043878198 0.0003659673 5.70249e-07 6.4150117e-06 3.11129e-06
2.9926294e-05 1.7440481e-05 3.869202e-06 5.10702e-06 2.2170158e-05 1.913109e-05 2.3625254e-05 2.9730161e-05
1.0947836e-05 2.3382183e-05 1.6377984e-05 2.7846843e-06 8.740758e-06 2.2353131e-05 3.3316494e-05 2.180035e-05
1.0135265e-08 6.731396e-08 2.0992519e-07 0.0 0.0 0.0 0.0 0.0
0.0 0.0 0.0 0.0 0.0 0.0 0.0 0.0
0.0 0.0 0.0 0.0 0.0 0.0 0.0 1.0380773e-08
2.5697373e-09 5.747801e-09 1.0380773e-08 7.689556e-09 9.5371435e-09 0.0 6.696615e-10 1.4478058e-09
6.1377436e-09 8.138533e-10 2.3917306e-09 1.0380773e-08 1.0380773e-08 0.0 0.0 0.0
0.0 0.0 0.0 0.0 0.0 0.0 0.0 0.0
0.0 0.0 0.0 0.0 0.0 0.0 0.0 0.0
0.0 0.0 0.0 0.0 0.00020778549 0.00010768579 2.7151116e-05 4.609692e-05
0.00020574128 0.00018183595 0.00023183652 0.00021549851 0.000102553015 0.00012983009 0.00015342905 2.6257634e-05
7.894483e-05 0.0002233874 0.0002500264 0.00020818449 7.1827203e-06 4.7945864e-08 1.4331803e-06 0.0
0.0 0.0 0.0 0.0 0.0 0.0 0.0 0.0
00000000: 0000 0000 0000 0000 0000 0000 0000 0000
00000010: 0000 0000 0000 0000 0000 0000 0000 0000
00000020: 0000 0000 0000 0000 0000 0000 0000 0000
00000030: 0000 0000 0000 0000 0000 0000 0000 0000
00000040: 0000 0000 0000 0000 0000 0000 aad6 6239
00000050: 1f84 d438 c387 ff37 c89e 8e38 5249 8039
00000060: 1a1d 6639 67d8 9139 a653 6b39 5818 df38
00000070: 1c41 1939 2094 3f39 3d66 0538 edd3 c138
00000080: e4cb 8539 187a 8839 af0a 8839 7e4a e736
00000090: ba8e 0436 ddf2 a935 2a72 0131 582a 5f31
000000a0: 68d1 9730 fb52 0931 582a 5f31 1fb2 2d31
000000b0: 6186 1731 0000 0000 6a46 4d2d c6fa 0b32
000000c0: 7adf 0331 0e13 722f 641d 2d30 0000 0000
000000d0: 9862 5c31 582a 5f31 0000 0000 9862 5c31
000000e0: 0000 0000 0000 0000 0000 0000 0000 0000
000000f0: 0000 0000 0000 0000 0000 0000 0000 0000
00000100: 0000 0000 0000 0000 0000 0000 0000 0000
00000110: 0000 0000 0000 0000 0000 0000 0000 0000
00000120: 0000 0000 0000 0000 0000 0000 0000 0000
00000130: d9d1 052c 925d 2930 8d7f cb2e e28d bb2f
00000140: 925d 2930 ad77 f52f f399 1b30 0000 0000
00000150: a447 9b2e 98f8 bc2e 8f06 c52f 2128 032e
00000160: b1a6 c32e 925d 2930 0000 0000 0000 0000
00000170: 0000 0000 0000 0000 0000 0000 9382 5d32
00000180: c07d 9a33 2ef8 9233 b037 3e34 f7ec 9534
00000190: ffa0 7c34 27cf 9d34 2460 2e32 ce94 de32
000001a0: 0cbb 3f33 273a 4134 ceac aa32 a0fe 7333
000001b0: 79c5 ab34 2e7b 9031 0000 0000 0000 0000
000001c0: 0000 0000 7f1b 3730 6d6f d038 6314 9037
000001d0: ae9b d736 d6c0 ca37 313f 0039 19f2 dc38
000001e0: 9030 0739 fa04 1938 b476 4438 7924 b938
000001f0: bb76 b938 cd38 8e37 dcbf 3f38 e502 1d39
00000200: e0aa 2a39 3fe9 1e39 4b48 2735 3eff 7434
00000210: 564c 9d35 b1a2 8f39 cfc6 0339 6686 a338
00000220: 7fb0 c438 6e10 d439 fa86 b839 944d d939
00000230: b34e 1539 dff1 e438 3725 b239 c6c0 9539
00000240: 03cd 4338 b0ad 0a39 4160 b439 520c e639
00000250: 4ddf bf39 3613 1935 8840 d736 8ecb 5036
00000260: 3a0a fb37 264d 9237 31d4 8136 f85c ab36
00000270: 0dfa b937 b47b a037 d92e c637 0965 f937
00000280: 99ac 3737 db24 c437 7463 8937 83e0 3a36
00000290: 45a5 1237 fc82 bb37 50bd 0b38 e5df b637
000002a0: 5e1f 2e32 3e8e 9033 cc67 6134 0000 0000
000002b0: 0000 0000 0000 0000 0000 0000 0000 0000
000002c0: 0000 0000 0000 0000 0000 0000 0000 0000
000002d0: 0000 0000 0000 0000 0000 0000 0000 0000
000002e0: 0000 0000 0000 0000 0000 0000 0000 0000
000002f0: 0000 0000 0000 0000 0000 0000 1f57 3232
00000300: 4c97 3031 317e c531 1f57 3232 061b 0432
00000310: cdd8 2332 0000 0000 3d13 3830 23fc c630
00000320: 2ae4 d231 d6b5 5f30 c55b 2431 1f57 3232
00000330: 1f57 3232 0000 0000 0000 0000 0000 0000
00000340: 0000 0000 0000 0000 0000 0000 0000 0000
00000350: 0000 0000 0000 0000 0000 0000 0000 0000
00000360: 0000 0000 0000 0000 0000 0000 0000 0000
00000370: 0000 0000 0000 0000 0000 0000 0000 0000
00000380: 0000 0000 0000 0000 0000 0000 0000 0000
00000390: fee0 5939 5ed5 e138 94c2 e337 3158 4138
000003a0: 41bc 5739 37ab 3e39 2419 7339 71f7 6139
000003b0: bb11 d738 0023 0839 cce1 2039 d743 dc37
000003c0: 2f8f a538 193d 6a39 fa15 8339 194c 5a39
000003d0: 1903 f136 09ed 4d33 b35b c035 0000 0000
000003e0: 0000 0000 0000 0000 0000 0000 0000 0000
000003f0: 0000 0000 0000 0000 0000 0000 0000 0000

exp_avg f4 [32]
0.0 -0.0011922623 1.8947621e-07 0.0 9.391096e-15 2.046561e-10 0.002544043 0.0069571473
-0.00019679473 0.0 3.7998484e-14 0.0 0.00014201736 0.0 0.006682127 0.005432248
0.0 -7.511637e-07 -0.009058528 0.0011487592 -0.019276854 -9.575117e-06 7.7167806e-07 5.2579247e-11
-0.0005970995 0.0014699165 0.0 8.523073e-08 0.0002006653 -0.008863004 0.0033801054 6.47608e-14
00000000: 0000 0000 af45 9cba d372 4b34 0000 0000
00000010: c92c 2928 9205 612f f5b9 263b c8f8 e33b
00000020: af5a 4eb9 0000 0000 4521 2b29 0000 0000
00000030: 7fea 1439 0000 0000 bef5 da3b 0001 b23b
00000040: 0000 0000 94a3 49b5 386a 14bc f691 963a
00000050: 7eea 9dbc d0a4 20b7 5025 4f35 f83e 672e
00000060: ab86 1cba 37aa c03a 0000 0000 1708 b733
00000070: ae69 5239 2236 11bc c284 5d3b 0fd4 9129

exp_avg_sq f4 [32]
0.0 0.0003150977 3.247484e-09 0.0 6.1614813e-10 3.1994912e-07 0.00015155932 0.00049178564
2.817836e-05 0.0 1.0380773e-08 0.0 0.00026482568 0.0 0.00026122978 0.0004030158
0.0 2.145764e-05 0.00040896962 9.838081e-06 0.00033457007 1.07128735e-05 9.550039e-09 3.2719001e-06
3.585751e-05 2.1646803e-05 0.0 9.633844e-07 1.733394e-05 7.8218785e-05 0.00016092254 5.710145e-08
00000000: 0000 0000 b333 a539 582a 5f31 0000 0000
00000010: 925d 2930 79c5 ab34 e5eb 1e39 2deb 003a
00000020: 9160 ec37 0000 0000 1f57 3232 0000 0000
00000030: 4dd8 8a39 0000 0000 abf5 8839 dd4b d339
00000040: 0000 0000 eeff b337 f96a d639 3c0e 2537
00000050: 3c69 af39 71bb 3337 8411 2432 d192 5b36
00000060: b565 1638 2896 b537 0000 0000 a34d 8135
00000070: 5a68 9137 6409 a438 51bd 2839 b53f 7533

exp_avg f4 [3, 32]
0.0 0.00018838572 1.6776121e-07 0.0 9.033023e-15 2.1568781e-11 0.0019061271 0.06957085
0.0030466786 0.0 7.917305e-15 0.0 -4.0678482e-05 0.0 0.039999697 0.0389587
0.0 -1.0713366e-08 0.008676908 0.00028722655 0.052242916 3.26231e-05 1.5023657e-07 1.1604314e-11
-0.000119032506 0.0045810435 0.0 -3.7095491e-09 -0.00015481394 0.01767026 0.08924582 3.5921834e-14
0.0 -0.00019589755 -7.5683397e-07 0.0 -4.2208943e-15 -2.2616071e-12 0.0013234472 -0.02515896
-0.0011735017 0.0 -5.5744504e-16 0.0 -0.00013131167 0.0 -0.00682518 -0.004085512
0.0 -1.0025075e-08 0.0032807149 -9.965716e-05 -0.009637455 -5.9593905e-05 -3.2142881e-07 -5.0723446e-11
3.777383e-05 -0.001642597 0.0 2.0991697e-09 3.433307e-05 -0.005251904 -0.020351343 2.1116342e-14
0.0 7.5117437e-06 5.8907244e-07 0.0 -4.8121238e-15 -1.9307183e-11 -0.0032295736 -0.044411886
-0.0018731775 0.0 -7.359858e-15 0.0 0.00017199013 0.0 -0.03317452 -0.034873184
0.0 2.0738439e-08 -0.011957625 -0.0001875694 -0.042605463 2.6970843e-05 1.7119223e-07 3.9119118e-11
8.125868e-05 -0.0029384466 0.0 1.61038e-09 0.00012048086 -0.012418355 -0.06889448 -5.703819e-14
00000000: 0000 0000 6889 4539 da21 3434 0000 0000
00000010: 77b9 2228 94b8 bd2d 03d7 f93a 297b 8e3d
00000020: c9aa 473b 0000 0000 20a0 0e28 0000 0000
00000030: 309e 2ab8 0000 0000 b9d6 233d 2893 1f3d
00000040: 0000 0000 e20d 38b2 9729 0e3c e596 9639
00000050: abfc 553d c9d4 0838 b750 2134 2f25 4c2d
00000060: 17a1 f9b8 941c 963b 0000 0000 14eb 7eb1
00000070: 8d55 22b9 39c1 903c 83c6 b63d 0ec7 2129
00000080: 0000 0000 d969 4db9 3c29 4bb5 0000 0000
00000090: e112 98a7 7e25 1fac 8577 ad3a 2a1a cebc
000000a0: 2fd0 99ba 0000 0000 2fac 20a6 0000 0000
000000b0: b5b0 09b9 0000 0000 c2a5 dfbb c2df 85bb
000000c0: 0000 0000 bf3a 2cb2 4301 573b 08ff d0b8
000000d0: 6be6 1dbc 78f4 79b8 d790 acb4 8615 5fae
000000e0: 576f 1e38 694c d7ba 0000 0000 fc40 1031
000000f0: da00 1038 2a18 acbb dcb7 a6bc f832 be28
00000100: 0000 0000 630d fc36 c020 1e35 0000 0000
00000110: 0260 ada7 e9d3 a9ad 41a7 53bb 3de9 35bd
00000120: 6885 f5ba 0000 0000 5b95 04a8 0000 0000
00000130: 4058 3439 0000 0000 01e2 07bd 2fd7 0ebd
00000140: 0000 0000 4f24 b232 eae9 43bc 47ae 44b9
00000150: 1183 2ebd 723f e237 f6d0 3734 360c 2c2e
00000160: 6c69 aa38 f492 40bb 0000 0000 3654 dd30
00000170: abaa fc38 5b76 4bbc 8d18 8dbd 4770 80a9

exp_avg_sq f4 [3, 32]
0.0 0.0005973022 2.99678e-09 0.0 8.166481e-10 5.726665e-07 0.00055299874 0.0033704746
0.0010679222 0.0 1.4972793e-09 0.0 0.0012655378 0.0 0.0020160757 0.0030321823
0.0 8.927888e-06 0.0027778652 4.5014635e-06 0.0054354784 0.0008053111 4.6844526e-08 7.9190903e-07
3.4783945e-05 0.0007412354 0.0 3.3650036e-08 6.104879e-05 0.0014485635 0.0017815086 3.576677e-08
0.0 0.000890078 5.960362e-08 0.0 1.7828283e-10 1.15854846e-07 0.00036579336 0.0026820623
0.0011211146 0.0 5.717296e-10 0.0 0.0015686293 0.0 0.001918406 0.0031509323
0.0 1.0125639e-05 0.003299539 2.1150136e-06 0.006193051 0.00081785314 4.803092e-08 2.5178522e-06
2.9279594e-05 0.00065935886 0.0 1.9532449e-08 3.809979e-05 0.0012455488 0.0009617797 4.7882573e-09
0.0 0.001031682 3.5887997e-08 0.0 2.3179424e-10 1.7519511e-07 0.0006789926 0.0035307272
0.0013061905 0.0 4.8923776e-10 0.0 0.0019591572 0.0 0.0023342795 0.0038848605
0.0 8.356799e-06 0.0040881136 8.975799e-06 0.0077930037 0.0011710573 1.213461e-07 3.344778e-06
3.8833918e-05 0.00072170305 0.0 4.0404107e-08 5.014877e-05 0.0017979707 0.0013436477 5.5436203e-08
00000000: 0000 0000 4694 1c3a e9ef 4d31 0000 0000
00000010: 807a 6030 58b9 1935 1ef7 103a 2ee3 5c3b
00000020: 86f9 8b3a 0000 0000 d5c8 cd30 0000 0000
00000030: 67e0 a53a 0000 0000 2320 043b 94b7 463b
00000040: 0000 0000 fdc8 1537 d80c 363b 470b 9736
00000050: 191c b23b 831b 533a 1a32 4933 9393 5435
00000060: fae4 1138 774f 423a 0000 0000 9b86 1033
00000070: 5207 8038 badd bd3a 8281 e93a fb9d 1933
00000080: 0000 0000 2054 693a e0fe 7f33 0000 0000
00000090: 2806 442f e0cb f833 f4c7 bf39 8ac5 2f3b
000000a0: 5df2 923a 0000 0000 e527 1d30 0000 0000
000000b0: 779a cd3a 0000 0000 0673 fb3a df7f 4e3b
000000c0: 0000 0000 4ae1 2937 143d 583b a8ef 0d36
000000d0: 14ef ca3b 3265 563a 8e4a 4e33 5ff8 2836
000000e0: 739d f537 d3d8 2c3a 0000 0000 4fc8 a732
000000f0: 57cd 1f38 af41 a33a f11f 7c3a f585 a431
00000100: 0000 0000 8139 873a 4523 1a33 0000 0000
00000110: 47dc 7e2f 441d 3c34 6cfe 313a c663 673b
00000120: 7b34 ab3a 0000 0000 0c7b 0630 0000 0000
00000130: 3465 003b 0000 0000 b6fa 183b 2599 7e3b
00000140: 0000 0000 2e34 0c37 95f5 853b c396 1637
00000150: 745c ff3b 2a7e 993a 5d4b 0234 d976 6036
00000160: 9ae1 2238 ac30 3d3a 0000 0000 c988 2d33
00000170: d556 5238 e3a9 eb3a 561d b03a c018 6e33

exp_avg f4 [3]
0.12034485 -0.031295672 -0.089049175
00000000: 5c77 f63d e42f 00bd 6a5f b6bd

exp_avg_sq f4 [3]
0.006758595 0.005420016 0.007220854
00000000: 3477 dd3b 649a b13b ea9c ec3b
